1_5_CNN_Layers/saved_models/fashion_net_4.3.solution2.gpu.pt (torch_old, 111301 bytes, 8 tensors)

conv1.weight f4 [10, 1, 3, 3]
00000000: 56e0 38bf 62ce 88bf 9e1a a2be 34e7 d4be
00000010: 698b 93bf 6728 8ebf 675b 19be 76b3 d1be
00000020: 270f 1cbf 379c 55bd 3b62 26be 3760 ef3e
00000030: adbf 9cbe fddc 46bf 66c8 503e a5d9 ea3d
00000040: d815 3dbf 9910 4b3e 60dd 6dbd 5d60 133f
00000050: 5e2e f4be af28 a93d 609e 503f 0e80 5dbf
00000060: a9e0 b5bd 8223 063f 4a02 ddbe cf17 1d3d
00000070: 0914 613b ec56 683f 666c 6b3e 6ac6 b43e
00000080: 86f0 c83e 7fc4 423f 7458 0c3f 9b7c 9dbe
00000090: 1ed6 0bbc e7f5 563f 3b37 173f e0d5 193f
000000a0: 47f3 4dbe 883d 363e 265e 8bbe bc70 05bf
000000b0: c8df 59bf 9736 893e 7faa 403f f715 f83e
000000c0: 747d c63c 2bee e03d 67b6 403d a80e a03d
000000d0: 95a2 263f f177 ff3d d9d5 573e 7ce8 b73e
000000e0: 20bf 083f 7885 45bf 876e 013f 881a 7b3e
000000f0: 1981 8dbf 2d71 463f 41f6 6d3e d5dd 173f
00000100: c023 a83e 4b07 89bf 4c81 29be 4c16 443f
00000110: a485 f3be baa6 c13e ee51 c4be 5c86 453e
00000120: cea0 043f 0575 bebe 7f1f a0bd d986 473f
00000130: 4841 6ebf 454b 453e 48ad 0c3f ea6a 02bf
00000140: 6a40 57bd ec6b 373f a9d3 1ebe 32ce 92bf
00000150: ebfb 843f c081 483e f12f 90bf e363 043f
00000160: 775d 0d3f 1700 16bf
-0.7221731 -1.0687983 -0.31660932 -0.41582644 -1.152692 -1.110608 -0.14976273 -0.4095723
-0.6096062 -0.05215093 -0.1624841 0.46753094 -0.30614987 -0.7768095 0.20388946 0.11467294
-0.73861456 0.1983055 -0.058072448 0.57568914 -0.47691625 0.08259713 0.8149166 -0.8652352
-0.08880741 0.5239793 -0.4316581 0.038352784 0.0034344217 0.9075763 0.2299057 0.35307628
0.39246005 0.7608108 0.5482247 -0.3075913 -0.008534936 0.8396897 0.5906865 0.6009197
-0.20112334 0.1779691 -0.27220267 -0.52125144 -0.8510709 0.2679946 0.75260156 0.48454258
0.024229743 0.10982927 0.047048952 0.078152955 0.6509183 0.12474049 0.2107767 0.3591956
0.53416634 -0.7715678 0.50559276 0.2452184 -1.1055022 0.7751644 0.2323847 0.59322864
0.32839775 -1.0705351 -0.16553229 0.7659652 -0.47562897 0.37822515 -0.38343757 0.19289535
0.5180787 -0.37198654 -0.078185074 0.77940136 -0.9306836 0.19266994 0.54951906 -0.5094439
-0.052551664 0.7164905 -0.1551043 -1.1469176 1.0389379 0.19580746 -1.126463 0.51714915
0.5522074 -0.5859389

conv1.bias f4 [10]
00000000: d4b3 693f 5c3d 553f a4cc 95bc c7d5 9a3b
00000010: 52b3 c53d bbdb 183a 6cc2 58bc dc56 b2bc
00000020: 3e47 f5bc 94f9 f7bc
0.9129002 0.8329675 -0.018286057 0.0047251913 0.09653343 0.0005831082 -0.013229948 -0.021769933
-0.029941197 -0.030270375

conv2.weight f4 [20, 10, 3, 3]
00000000: 09ff 94bd 0785 8b3e 67a8 b03e cc8b cabd
00000010: 83a5 d33d 66e7 f23e aae4 b0be ca21 6abe
00000020: 905e 3e3b 43dc 0c3e 015a eb3a f230 433e
00000030: 2510 42bd f89e 83bd 7134 293d 74e0 7abd
00000040: 6a6b 3cbe f834 34be 981f 363d 18a1 f5bd
00000050: 5a2e f6bd dd3c 64bd 9838 4cbe f51f 6fbe
00000060: e385 6ebe 0b0e 92be 687c 84be 544c 2ebe
00000070: cbc3 0fbe 4991 b3be 45b6 a63e 1bd4 80be
00000080: 256b dbbe 3295 ba3e 2a2a d03e c7f9 3a3e
00000090: 4668 4b3d 1190 383d c9bb 85bd 4167 563e
000000a0: 907a 46bc 43b2 8dbd f396 743e 137f aa3d
000000b0: c81c 7d3d 105c 1abe c0d9 2abe a54a 8dbe
000000c0: 4912 753e f29a 03be 9587 9cbe 7eef da3e
000000d0: 027f b43e 5f0d 803e c714 bebc 8a83 de3c
000000e0: 6413 6bbd c23b 1e3e 44d2 6fbe 939b afbe
000000f0: 05de 783e 315f 0cbe 3a17 c5bd 019b 513c
00000100: 7df7 983d a437 99bd 2e7a 143d 3150 713b
00000110: a8da 4cbe 18c6 cf3d c218 c4bd 41e9 1dbd
00000120: da04 933d 2d2c 23be 9aaa dc3c 7f5f 4b3e
00000130: 6883 2b3c 31c1 3dbe 42f4 0cbd b764 0fbe
00000140: fb35 72be ab44 e9bd 6658 79bc a170 17be
00000150: 2508 493c 6ca4 eabb c764 01be 68a7 ccbd
00000160: 1a9f 78be c50c 36be cbb8 1cbe c37e 9a3d
00000170: 66e8 a33e 50c3 f2bb f1c9 823d cc6d 953e
00000180: 09c8 d3bd 6f51 94bd 1557 e43e d2a6 0cbe
00000190: 5432 a0bd 6fdd c43c aa9c 1a3e ca0e 8bbd
000001a0: 3546 86bc bb4f e83c 96a0 5ebe 7d76 473d
000001b0: 0d07 a9bd 17fc 97bd ac9f ae3d 6b6d 37bd
000001c0: 393f c53b 95f7 c63d 6292 f33c 174b a93d
000001d0: 8c23 1ebd caf8 adbd eaa2 a3bb a48f 1f3e
000001e0: 78a5 70bd 0803 4d3e 0974 4ebe 52e8 653e
000001f0: 2076 523e fac9 76be c052 97bd 9b04 bbbd
00000200: 6f85 273e 6814 86bd d886 293c c786 6f3c
00000210: 2c08 0d3e 93fd ee3c bd69 c93c 6ae4 00be
00000220: 1afb 453d 4c14 2dbd 1e48 23bc c851 9d3d
00000230: 73e4 10be 3b6e 763e e999 f23a 9865 f7bd
00000240: c26b c03d f04c a23c 3011 b5bd 757f 473e
00000250: 0be3 85bc 5951 1bbe f185 3c3e c572 7fbd
00000260: c8be 96be facc c9bd 0b59 c8bd 67f5 d73d
00000270: eaa0 02be 71b4 d4bd 814b 623e ec67 d2bd
00000280: e4df fbbc 8723 d93d edd8 71be cab1 12be
00000290: 50ba 133e e6b4 273c 47a5 37bd dcf8 5d3e
000002a0: 0c9d 7dbc 3b25 8b3c 29c8 233d 0761 a0be
000002b0: 9905 70be 29c8 b33d 8140 d7bc 9632 15be
000002c0: 5fdf f83e 4c81 b63a 0ee2 cdbd 3d04 063e
000002d0: aae6 debb a91d 1d3d 5361 803e 577f d9bd
000002e0: e7fb 86bd 5fa0 443e 3da9 d53c ba52 4ebe
000002f0: b8db 1f3e b3c6 57bd 49b2 a7bd e5be 783e
00000300: e037 d5bd b2f8 af3d 2f66 fc3d 6717 9fbd
00000310: 64fc 62bd 700b ff3d d5be 97bd e57a 3f3e
00000320: 09e8 65bb f1bc 3e3d ce63 893d 51c0 cdbd
00000330: 187f 38be 3095 a83d 5832 37bd c6d7 17bd
00000340: 0878 39bd 5c6f 2bbe 5ec7 473d a23b 863e
00000350: 0b50 7ebe c40f 6fbe adcf 8c3e 163e 42be
00000360: 279a ffbc b1d6 5bbd da4b 07be a272 99bb
00000370: fc6d 7b3d d486 56be e2ba 3a3d ee36 1bbd
00000380: e040 a0bb 0f80 4b3e 191e 353e 6b3a 15be
00000390: 2184 4ebd 4658 993e bc4c 43be a088 b5bc
000003a0: d524 bd3e 5dc4 3fbe affd 1d3e ad0c f23d
000003b0: 7075 19bd 74de 45bc 9fd5 243e b9e6 07bd
000003c0: ce89 393d 61c5 fc3d bfd0 40bd 65ad 70bd
000003d0: 9080 3f3e 10de 15be 532a 3fbd 934f 9f3c
000003e0: 9038 a03d 8e62 33be ed00 02bd 9329 033e
000003f0: 2256 80bd 8635 bebd 3275 ab3d 1237 31be
-0.072752066 0.2724993 0.3450348 -0.098899454 0.10334303 0.47442168 -0.34549457 -0.22864452
0.0029048063 0.13755898 0.00179559 0.1906164 -0.047378678 -0.06426805 0.041309778 -0.06124921
-0.1840035 -0.17598331 0.044463724 -0.11993617 -0.120205596 -0.055722106 -0.19943464 -0.23352034
-0.23293261 -0.2852634 -0.25876164 -0.17021304 -0.14039533 -0.3507178 0.32560936 -0.25161824
-0.42855182 0.36441952 0.4065717 0.18259345 0.04965999 0.045059267 -0.06529958 0.20937826
-0.012114182 -0.06918766 0.23885708 0.08325019 0.061795026 -0.15074182 -0.16684628 -0.27596012
0.23932756 -0.12852076 -0.3057219 0.42760843 0.3525315 0.250102 -0.023203267 0.027162332
-0.05739154 0.15452483 -0.23420054 -0.3429838 0.24303444 -0.13708188 -0.09623571 0.0127933035
0.0746908 -0.07481316 0.036249332 0.003682148 -0.20005286 0.10145205 -0.09575035 -0.038552526
0.0717866 -0.1593482 0.026936818 0.19860648 0.010468341 -0.18530728 -0.03441263 -0.14003263
-0.23653404 -0.113900505 -0.01521883 -0.14789058 0.012270008 -0.007160714 -0.126361 -0.09992868
-0.24279442 -0.17778309 -0.15304868 0.07543709 0.32013243 -0.007408537 0.063861735 0.2918533
-0.10340888 -0.07242095 0.44597688 -0.13735512 -0.07822099 0.024031369 0.15098825 -0.0678993
-0.0163909 0.028358331 -0.21740946 0.048696984 -0.08253298 -0.07421129 0.08526549 -0.044782083
0.0060194996 0.09715191 0.029732887 0.082662754 -0.03860812 -0.084947184 -0.004993786 0.15582138
-0.058751553 0.20020688 -0.20161451 0.22451904 0.20552874 -0.24100485 -0.0738883 -0.09131738
0.16359495 -0.06546861 0.010347091 0.014619536 0.13772649 0.029173648 0.024586553 -0.12587133
0.048335172 -0.042255685 -0.009965925 0.07681614 -0.14149646 0.24065487 0.0018509004 -0.12079924
0.09395553 0.019812077 -0.08841169 0.19482215 -0.016343614 -0.1516775 0.1841047 -0.062365312
-0.2944243 -0.09853549 -0.097826086 0.10544854 -0.12756696 -0.10385979 0.22099115 -0.10273728
-0.030746408 0.106024794 -0.23617907 -0.14325634 0.14426541 0.010236001 -0.044835355 0.21676964
-0.015479337 0.016985526 0.03998581 -0.31324026 -0.23439635 0.08778412 -0.026275875 -0.14570078
0.4860792 0.0013924032 -0.10052882 0.13087554 -0.0068023996 0.038358364 0.25074252 -0.10619991
-0.06591015 0.19201802 0.026081676 -0.20148745 0.1561116 -0.05267973 -0.08188302 0.2429157
-0.10411048 0.08592357 0.123241775 -0.077681355 -0.05541648 0.124533534 -0.07409445 0.18699224
-0.003508093 0.046566907 0.06708489 -0.10046447 -0.18017232 0.0823158 -0.044725746 -0.037071012
-0.045280486 -0.16741699 0.048774116 0.2621737 -0.24835221 -0.23345858 0.27502194 -0.18968996
-0.031201435 -0.053671543 -0.13212529 -0.0046828547 0.061384186 -0.2094987 0.04558838 -0.037894182
-0.004890546 0.19873069 0.17687263 -0.14573066 -0.050418977 0.2995016 -0.1907224 -0.022159874
0.36942163 -0.1872725 0.15428804 0.11818824 -0.037465513 -0.012076963 0.16097115 -0.03317902
0.045297436 0.123423345 -0.047074076 -0.058759112 0.18701386 -0.14635491 -0.046671223 0.019447124
0.078232884 -0.17518064 -0.031739164 0.12808828 -0.062664285 -0.092875525 0.083719626 -0.17306164

conv2.bias f4 [20]
00000000: 7782 ed3d 092c e7bd e6d9 54be 8678 0c3d
00000010: 0edc 0a3d b53b 703d 4cb9 253e 1443 273e
00000020: b8e5 9f3c 68c8 10bd 196b 263e 9f05 613e
00000030: 382c 0f3c 613e 1b3e 5b59 803d 89ef be3d
00000040: ca80 87be 8345 353e 3a2a 09bd 9d62 45be
0.1159715 -0.11287696 -0.20786247 0.034294628 0.033901267 0.05865069 0.16183966 0.16334182
0.019518718 -0.035347372 0.16251792 0.219748 0.00873857 0.15160514 0.06267043 0.093230315
-0.26465446 0.17702298 -0.033487536 -0.19275899

fc1.weight f4 [50, 500]
00000000: 72db 903e 4c16 9e3b 60f8 503d d8f6 803d
00000010: 9843 033e 8636 883d 5e6e acbc 46ef 8a3d
00000020: b285 6ebd 8464 0c3e 5e7a 8abc f3ca 41be
00000030: 976a a53c 4c13 aabc c4a5 de3c c525 dbbb
00000040: 2cee cbbd 58f3 02bd c289 333d 4fdc b93d
00000050: 4334 9cbd 67be 95bd c81d 5f3c eb38 923c
00000060: 23a2 03be d7ea 2c3d de52 333d fa14 223e
00000070: 6075 f13d f7bf 84bd 6839 1ebd d7bf 20bd
00000080: e231 8abb f749 dbbd 0532 053e 95a6 8bbd
00000090: 39bd a8bd 40a0 89bd 6055 d7bd 4496 b9bd
000000a0: 2c31 c5bd 0035 b73c c5ab 8b3d 0d86 c8bc
000000b0: 3e3e 3abe 4540 dc3d a543 b43d 11c6 aa3a
000000c0: 0425 89bd 2aa3 383d c082 623d 9886 bdbd
000000d0: 7dec d6bd eb7d df3d 5a47 0d3d d393 00bd
000000e0: 53ab 5abd 8767 92bd ec5d 28bb f06d 163e
000000f0: 848d 19be 5969 78bd 0d0c d9bd 6eae 0bbc
00000100: c95b 42bc af42 48be 1a24 213d 94c7 e63c
00000110: 68fa bf3b 4fe3 fdbd 91d1 9dbc b217 073e
00000120: 449e 1fbd 94c7 d83d e453 87bd d110 0a3d
00000130: 841a 103c a801 2fbc fa70 d03c 7aec 57bb
00000140: 129a e03c 0462 d4bc c8e3 19bc 8e5e edba
00000150: 4614 0b3d bab6 0ebd 674d 173d d020 14bc
00000160: 28e8 843b 87c6 323d 5635 13bd 2014 33bd
00000170: e6b9 b43c 0e2e cc3c b4fc 6b3c a1d9 05bd
00000180: fcb0 043c c0ac 03ba 6d99 163d e3ba 153d
00000190: b9ea 823d 5033 6e3d 33ce 57bd c365 213d
000001a0: cf8d 78bd 59c1 9e3d 826f 18bd 708e 4abd
000001b0: 30f6 8b3d 3a75 4dbd bdb6 b13d 19b7 e8bc
000001c0: ca95 1fbd 9393 2d3b 7a3b 93bd c3f1 8f3c
000001d0: f388 e63b f7e1 193b f7e8 243d a1a4 c3bd
000001e0: d94a 8e38 42f0 d3bb aafa c03c 4e2d b23d
000001f0: 6a3d 543d 0518 85bc ab54 fb3a 3a1d b7bc
00000200: d316 2bbc eebe 8c3c 5acc 243d dfa4 1d3d
00000210: b1d3 2ebd b073 88bc 8a8e f23c e6b0 4dbc
00000220: 5d67 253d e39b 803c 127b 02bd 1045 07bb
00000230: a0e9 24bd badb df3c 1510 013d 30b7 dabb
00000240: 46be c43c 7b97 213d 8666 b73c b61e a33c
00000250: 0b57 05bd 133c 263d 7861 473c 6688 1dbd
00000260: 9068 8dbd 9c9d 813c dd55 68bd c63e b4bc
00000270: d985 133d db3c e5bc 1c92 38bc 2c21 3bbe
00000280: 779d 943c bfcc 413d f1b2 6c3d 263a 7fbd
00000290: d42e 443d 7c61 a7bd b0d7 603d a0fb 763d
000002a0: 9a92 15bd 4bd7 0d3d 6d98 8fbc 12e8 793c
000002b0: cf2b c13c bcd0 983d 7746 b93d 179f 2f3c
000002c0: 12d2 c53b c2f3 ca3d 7add a9bd 3f09 8fbe
000002d0: 371c 703d 32f8 263d 7f22 e33c ea56 4a38
000002e0: 65ea 28be 1a5a a23c a073 643d f685 0dbd
000002f0: 7483 453c 8522 43be 5daf c2bc 6c4f 24bd
00000300: 780a 063d 8386 e13d d52f d23d be86 13bc
00000310: bc5b 0c3b ab5a ddbd 23e3 bf3c 8893 7b3e
00000320: 0648 07bd 6737 b13d ee21 7b3d 5d0a 813d
00000330: b6e5 e63d 2569 81bd ecbd b83d b2df 1f3d
00000340: 58c2 303d 6533 c73d 4ba8 f9bc f937 4abd
00000350: 70ab 17be 3def b6bd 20ae 9f3d 5837 0cbd
00000360: 72b7 4fbd 8760 2dbd 388a f83c 4e5d 003c
00000370: cb16 cf3d e063 543d b03e 1bbe e3c6 3ebe
00000380: fa31 3dbd a4c2 303e d9f7 67bc 4ec4 bbbc
00000390: 20cb 3ebe 6ba0 d13d 5320 133e c69f b6bb
000003a0: 552f 9fbc 509c df3c 6f41 8f3d 44e4 223e
000003b0: da7f 3bbc 323c 953d a46a 0ebd fe62 1f3d
000003c0: da28 b43b 7ec9 423d 3f74 6ebd 0cbc e5bd
000003d0: 693d 11bd 4999 2dbc e995 363d 2e05 01bd
000003e0: cecb 1abc 3392 9dbd f680 a2bd db02 883d
000003f0: 6341 00be 4fa8 01bd 8fe3 d9bc 1c19 913c
0.28292423 0.0048244353 0.05101812 0.06297082 0.12818754 0.066510245 -0.02104872 0.06783919
-0.05823297 0.13710219 -0.016904052 -0.18925075 0.020192428 -0.020761155 0.027178653 -0.006687852
-0.09957537 -0.031970352 0.043832548 0.09075224 -0.07627156 -0.07311707 0.01361794 0.017849406
-0.12854819 0.04221615 0.0437802 0.15828314 0.11789966 -0.06481927 -0.038628966 -0.039245453
-0.0042173723 -0.10707467 0.13007362 -0.068188824 -0.08239216 -0.067200184 -0.10514331 -0.09061864
-0.096285194 0.02236414 0.06819872 -0.024477983 -0.18187806 0.10754446 0.08801965 0.0013028999
-0.06696513 0.04507748 0.055300474 -0.09254187 -0.10494325 0.10912689 0.034491874 -0.031390976
-0.053386044 -0.071486525 -0.0025690747 0.14690375 -0.1499539 -0.060647342 -0.10598002 -0.008525474
-0.011862704 -0.19556688 0.03934107 0.028171338 0.005858708 -0.12396871 -0.019264968 0.13192633
-0.038969293 0.105849415 -0.06607798 0.033707444 0.008795384 -0.010681547 0.025444496 -0.0032947347
0.027417216 -0.025925644 -0.009392686 -0.0018109845 0.03395488 -0.03484223 0.03693905 -0.009041026
0.0040559955 0.04364636 -0.035939537 -0.043720365 0.0220613 0.024924304 0.014403511 -0.03267825
0.008098837 -0.0005022995 0.036767412 0.036555182 0.06392426 0.058154404 -0.05268688 0.03940369
-0.060682114 0.07751722 -0.037215717 -0.049452245 0.06834066 -0.050160624 0.08677433 -0.02840762
-0.03896121 0.0026485666 -0.07189079 0.017571336 0.0070353686 0.0023480633 0.040261235 -0.09552885
6.785029e-05 -0.00646785 0.023557026 0.087000474 0.05181638 -0.016246805 0.0019175013 -0.022352803
-0.010442453 0.017180886 0.040233947 0.03848731 -0.042682353 -0.016656727 0.029608984 -0.012554383
0.040381778 0.015699333 -0.03185565 -0.002064053 -0.040261865 0.027326453 0.031509478 -0.0066746697
0.02401651 0.039451104 0.022387754 0.019912105 -0.032553714 0.040584635 0.012169234 -0.038460158
-0.06904709 0.015822224 -0.05672251 -0.022002589 0.03601632 -0.02798312 -0.011265304 -0.18274373
0.018141491 0.0473144 0.05778784 -0.062311314 0.04789622 -0.081728905 0.054893196 0.060298562
-0.036516763 0.034629147 -0.017528737 0.015253084 0.02358046 0.07461688 0.09046643 0.010719082
0.006037005 0.09909774 -0.082941964 -0.27936742 0.058620658 0.04076404 0.02772641 4.8241498e-05
-0.16495664 0.019818354 0.05577433 -0.034551583 0.012055267 -0.19056137 -0.02376526 -0.040114805
0.032724828 0.11011984 0.102630295 -0.009004293 0.0021416983 -0.10808309 0.023423737 0.24567997
-0.03302767 0.08653145 0.061311655 0.06300805 0.11274283 -0.06318883 0.090206 0.03903169
0.04315409 0.097265996 -0.030475756 -0.049369786 -0.14811492 -0.0893235 0.077968836 -0.034232467
-0.050712056 -0.042328384 0.030339345 0.007834746 0.10111769 0.05185306 -0.15160632 -0.18630557
-0.04619024 0.1726175 -0.014158213 -0.022920754 -0.18632174 0.102356754 0.143678 -0.0055732457
-0.01943175 0.027296215 0.06994902 0.15907389 -0.011444056 0.07286872 -0.03476967 0.038912766
0.005498034 0.04755544 -0.05821633 -0.11217508 -0.035458956 -0.010595628 0.04457656 -0.03149908
-0.009448005 -0.07693901 -0.079347536 0.0664117 -0.12524943 -0.031654652 -0.026597766 0.017712168

fc1.bias f4 [50]
00000000: 3879 86bc 3ac5 b8bb 9434 ab3d fb1a 25bd
00000010: cc7d 1b3c 8422 423d 556a e63c 73ba 623d
00000020: 6b15 003e 2223 d73d afcc ca3d a7ce ba3d
00000030: 163f ce3b 6cbb 643c 86d6 76ba 5d17 8f3d
00000040: c391 ee3c 9692 863d 0f31 e5bc c91b 7b3e
00000050: c3b4 06ba 908c a7bc 2f58 f33d 5310 7c3d
00000060: 793e f33d 2c44 be3c 0028 f13c 0abc 193d
00000070: 7b62 d5bc 5bc2 c33d 6f10 c43c 9a14 1a3e
00000080: 19b3 f23c f3c1 e8bb c50c 8a3c 5907 e73c
00000090: 0fc0 a8bc a121 073b b6b4 de3d 89c5 75bc
000000a0: 7d2b a03d 2f4b 803c 8a05 42bd 8e16 bbbc
000000b0: cf22 0e3c f380 3a3c fea2 ed3a 5f82 ba3a
000000c0: e66d 9d3d 8968 2abd
-0.016415223 -0.0056387456 0.08359638 -0.040308934 0.0094904415 0.047396198 0.028126875 0.055353593
0.1250817 0.10504748 0.099023215 0.09121447 0.0062941415 0.0139607005 -0.0009416122 0.06986878
0.029122239 0.06570928 -0.027977495 0.24522318 -0.000513863 -0.020452768 0.11882054 0.061539005
0.1187715 0.023225866 0.029438019 0.037532844 -0.026047936 0.09558555 0.023933617 0.15046921
0.029626416 -0.0071031987 0.016851792 0.028201746 -0.020599393 0.002061941 0.108743116 -0.015000709
0.07820795 0.01566085 -0.047368564 -0.022837903 0.008675291 0.011383283 0.001813024 0.0014229527
0.07686977 -0.0416036

fc2.weight f4 [10, 50]
00000000: f7a9 0ebe d435 c03e 1d36 e13e 8bf2 8cbe
00000010: 6948 acbd ab36 9ebd 9008 1a3d 2df3 57be
00000020: 073c 92bd 900e b63e b6c5 ecbd 11d3 de3d
00000030: 15a6 a8be 9cf1 cc3e cc45 d83c 2fab d8bd
00000040: e04f 843e 3aad 9abc 4db0 843e b547 a93e
00000050: 7058 a63e 3d6c c93e f847 673d b6a4 83bc
00000060: 05f9 a63e 0f87 8a3e b373 1cbd 6d30 b23e
00000070: 8164 9bbd 3bce 5ebd d6d9 86bb f6ea a53e
00000080: 2a9a a6be c15d 79be 50bf 26be e41d 1a3e
00000090: a534 3a3e b021 43be c684 9fbe 38f9 153d
000000a0: 8e2e 97bd 989e ec3d 16b1 0fbd 0178 2e3e
000000b0: c999 d03e ec3b a5be f2ae a9b9 004c 12be
000000c0: 388f 2dbe f83d 6a3e 63da 8cbe f625 a6bd
000000d0: 9bea a3be 29d5 8c3e f94f 02be 700c be3e
000000e0: b44b 913e 21ee 003f a636 2cbe b6b7 81be
000000f0: c15f 80be fb8a 8e3e ca13 a1be 2a2c c3be
00000100: b8f4 da3e 69ba da3e 8c6d 933d 2fca 5dbe
00000110: f86a 4bbe b132 96be 1f2c bf3e df13 d23e
00000120: 84d7 61be 9360 b73e 3241 bdbe 53c7 903e
00000130: 9815 273e 9bf0 253e 3f48 b8be 915b 1dbe
00000140: fdf3 acbd db03 a2be 4713 8abe f9b9 9f3e
00000150: 265a 01be 95a0 35be 408a 353e 6e2a 02bd
00000160: 9afa adbe 55e4 4bbe c0ca f6be bb9a 89be
00000170: c9cc da3d 9df9 313c a1ea 84be 260c 04bf
00000180: 77f0 d23e 6617 d5bd 8dec 9ebd c79b a13e
00000190: 723f 893e 5440 fd3c 868a 37be 8218 ac3c
000001a0: d26c 03be a296 983e ecf7 1c3e da96 24be
000001b0: c2c9 85be c494 a73e aec9 babe 06d6 4b3e
000001c0: 793a a1be 7e0d ae3e f13b 5ebd e96c c4bc
000001d0: 90ec 71be 0c39 e23e 6a2f a93e bcb8 ab3e
000001e0: f67d 093e 182f 85be 675b 303e abdf 2bbe
000001f0: 06b3 7c3e 9dab 37be 3338 443e b990 9ebe
00000200: 05fd c0bd 26f6 a23e 1690 02be ef40 d13e
00000210: 5662 8ebe 188e a5be 8ff4 21be 1e45 58be
00000220: fe27 803e eb56 b6be 5a27 9e3e 4eb5 bbbe
00000230: ea8c 8c3e a112 ba3e ed8a 96bd b4e0 c5bd
00000240: 004c c83e f640 2fbe 8637 b9bc 8e86 683e
00000250: 644f 2a3d 6b53 42be c913 823e 3d39 96be
00000260: c75e 18be 6e21 41be 3c3b d2bd 8a46 af3e
00000270: 76fd 5c3d 8dd1 a7bd dfd6 d93c b599 cfbe
00000280: 7f3d c5be e9f9 6fbe d3b0 953e 5404 a63e
00000290: bb31 bd3e 6d3e 5bbe 9e31 6b3e a0df 07be
000002a0: da02 b6be 993f b03e 8766 30be 14a4 ae3e
000002b0: 6460 2a3e 972c a73e e460 823e 1dd9 733e
000002c0: 8e93 7dbe 4819 30be 294e 6abd 4c2a 0abf
000002d0: cf74 64be d43b 953e f632 893e d979 f6bd
000002e0: 8b65 69be 21e7 2cbe e7ee 0c3e c00b 8a3e
000002f0: 4fed b8be 80a4 b6be f41f 593e 31d7 00be
00000300: 7978 143e dd55 97bd 76b9 ba3e 9459 913c
00000310: 97ef b53e cfe9 7e3e e6cc 27be 67a0 9c3e
00000320: 3232 883e fdfe 90be 21e4 79be ef47 493e
00000330: 7d7f 31be 1607 963e cf9a 333e eb4e 993e
00000340: 8733 97be de8f 66be 94be d9be 8242 f1be
00000350: 1133 c3be 3318 b43e dc44 99bd 33f4 76be
00000360: 890b edbe 4b15 e73e f57c a93e 13a8 22be
00000370: 4321 c63e 9dbd f4bd f07a 77be d319 8c3e
00000380: e3bb 73be 2bc8 7bbe b067 273e 68e1 b5be
00000390: 4d54 923e a266 973e de72 47bd 6117 1ebe
000003a0: 69ff dcbe af4d be3d 2939 68be 78dc 563e
000003b0: 5a87 8f3e be7b 273e 269c af3e 9d1b 0f3e
000003c0: bc5b a53e 552a bd3e 916e 053e d777 5b3d
000003d0: d4d3 d63e 0d5a 3a3e 5a60 b23e 6df0 68be
000003e0: ee8a 00bd d9b5 8d3e 8bc3 f6be 32b1 b23e
000003f0: 356b 41bd da14 823e f1e2 4d3f 7f27 bbbe
-0.13932024 0.37541068 0.43986598 -0.27528796 -0.08412249 -0.07725271 0.037605822 -0.21088858
-0.071403556 0.35557985 -0.11561148 0.108801015 -0.3293921 0.40028083 0.02640047 -0.10579526
0.2584219 -0.018881429 0.25915757 0.3306252 0.32489347 0.39340392 0.05646512 -0.016069751
0.32611862 0.27056167 -0.038196277 0.3480257 -0.07587529 -0.054395895 -0.0041153235 0.32405823
-0.32539493 -0.2435217 -0.16283917 0.15050465 0.18184145 -0.1905582 -0.31155986 0.036614627
-0.073819265 0.11553687 -0.03508099 0.17037965 0.4074233 -0.3227228 -0.00032364536 -0.14286804
-0.16949165 0.22875202 -0.27510366 -0.08112709 -0.32014927 0.27506378 -0.1272582 0.37118864
0.2837807 0.50363356 -0.16817722 -0.25335473 -0.25073054 0.2784041 -0.3146041 -0.38119632
0.4276483 0.42720345 0.07198629 -0.21659158 -0.19865024 -0.2933555 0.3733835 0.41030785
-0.22054869 0.35815868 -0.36963803 0.28277072 0.16316831 0.16205065 -0.3599262 -0.15366961
-0.084449746 -0.31643566 -0.26967832 0.31196573 -0.12632045 -0.17737038 0.1772852 -0.031778745
-0.33980256 -0.1991132 -0.4820156 -0.26875862 0.10683591 0.010862735 -0.25960258 -0.5158104
0.41199085 -0.104048535 -0.07759962 0.3156416 0.26806217 0.030914463 -0.17923936 0.02100778
-0.1283448 0.29802424 0.1532895 -0.1607317 -0.26130491 0.32730687 -0.36481994 0.19905862
-0.31489924 0.3399467 -0.054256383 -0.023977714 -0.23625398 0.44184148 0.33043987 0.3353938
0.13426957 -0.26012492 0.17222367 -0.16784541 0.24677667 -0.17936559 0.19162063 -0.3096979
-0.0942326 0.3182842 -0.12750277 0.40869853 -0.278094 -0.3233497 -0.15815948 -0.21120116
0.25030512 -0.35613188 0.30889398 -0.36661762 0.2745126 0.36342338 -0.07350717 -0.09661999
0.39120483 -0.17114624 -0.022609483 0.22707579 0.04157962 -0.18977134 0.2540572 -0.29340544
-0.14879905 -0.18860409 -0.10265204 0.34233505 0.053952657 -0.081942655 0.026591716 -0.40546957
-0.3852348 -0.23435177 0.2923647 0.32425177 0.36952004 -0.21410532 0.22968146 -0.132689
-0.3554905 0.3442352 -0.17226611 0.34109557 0.16638333 0.32651207 0.25464547 0.23813291
-0.24763319 -0.17197144 -0.057203446 -0.5397079 -0.22310184 0.29147208 0.26796693 -0.12034959
-0.22792642 -0.16885044 0.13763009 0.2696209 -0.36118552 -0.3567238 0.21203595 -0.12582089
0.14499082 -0.07389424 0.3646962 0.01774291 0.35534355 0.24893878 -0.16386756 0.30591127
0.26600796 -0.2831954 -0.2440343 0.19656347 -0.17333789 0.2930228 0.17539524 0.29943022
-0.295315 -0.22515818 -0.42528212 -0.47121054 -0.38124898 0.35174713 -0.07483837 -0.24116592
-0.46297863 0.45133433 0.33103147 -0.15884428 0.38697252 -0.11950228 -0.2416799 0.27363452
-0.23802142 -0.24588077 0.16348147 -0.35523534 0.2857994 0.2957049 -0.04869353 -0.15438606
-0.43163612 0.09292161 -0.22678055 0.2098254 0.28032953 0.16355798 0.3429882 0.13975377
0.3229655 0.3694636 0.13030459 0.053581085 0.41958487 0.18198414 0.34839135 -0.22747965
-0.031382494 0.276778 -0.48196062 0.34900814 -0.04722138 0.25406533 0.8042441 -0.3655357

fc2.bias f4 [10]
00000000: 60d5 5b3e b5ad 98be 7856 153e ca56 773e
00000010: 29fb b8be 5881 44be 3e9a e33e 8599 29be
00000020: 633c 8f3e 83f3 2ebe
0.21468115 -0.29820028 0.14583766 0.24154201 -0.3612912 -0.19189966 0.44453615 -0.1656247
0.2797576 -0.1708508
