1_5_CNN_Layers/saved_models/fashion_net_4.2.solution1.pt (torch_old, 28769 bytes, 6 tensors)

conv1.weight f4 [10, 1, 3, 3]
00000000: ed32 52be c496 9fbe dac6 1abe 11a0 713e
00000010: b069 4ebe f359 93be ddb3 1ebe b816 863e
00000020: 19c4 503e 188c 493d 563f 243f ac85 533f
00000030: 5d3a fbbd 56c8 bd3e ea55 ff3e 3aa0 3b3e
00000040: 2426 4f3f 8e10 dfbd 4cd6 133f 2a42 8e3f
00000050: 0b5a 963f c52e 573f 4d91 823f c791 383f
00000060: c829 1e3f 2241 c13e e36d 613d e5b4 89be
00000070: f6e1 1fbd bb8e f83d becc 823e 5eb6 7a3d
00000080: 0e42 9c3d 0e86 a8be 4245 77be a759 ed3c
00000090: 0a23 ed3e 0c63 cf3e 8a74 8c3e 5027 a53e
000000a0: a708 b0be 1b00 d2be 27c2 82be 5651 2abe
000000b0: 7c6f 0ebf 58ff ee3e a85f 323f dffe 83be
000000c0: 80e3 423d 7ed1 0a3f 6d3c c2bd 58fb a93e
000000d0: 50c8 c33e 04c5 f4be da70 5ebe 3206 a9bd
000000e0: db44 babc 4ebc a2bd d647 9ebe b7cc 74be
000000f0: 5a8f ebbb f6b7 9c3c 4ee6 953e 04d9 2ebc
00000100: 24e7 77be 5909 5cbe 5f80 043e 6946 9dbd
00000110: 4e9e 00be eb0f 3e3e d644 97bd a474 7cbe
00000120: c707 c23e b708 23be f91a c83e 5bcd 7d3e
00000130: c4e5 15be 5c25 8a3c dd86 9ab9 4970 a63e
00000140: 7018 003d 1f8d 193d f50f 82be d82c 113e
00000150: 3305 febd c722 0cbe 6d07 7d3e 9313 b43e
00000160: cd7c 20bd fab2 81bd
-0.20527239 -0.31169713 -0.15114918 0.23596217 -0.20157504 -0.28779563 -0.154983 0.26189208
0.20387305 0.04920587 0.6415914 0.8262584 -0.12266991 0.37066907 0.49870235 0.1832284
0.8091757 -0.108918294 0.57748866 1.1113942 1.1746229 0.8405574 1.0200592 0.7209744
0.61782503 0.37745005 0.055036437 -0.26895824 -0.039033853 0.12136599 0.2554683 0.061209075
0.076297864 -0.32914776 -0.24147514 0.028973414 0.46315795 0.40505254 0.27432662 0.32256556
-0.343816 -0.41015705 -0.2553875 -0.1663259 -0.5563886 0.46679187 0.6967721 -0.2578039
0.047580242 0.5422591 -0.094841816 0.33199573 0.38238764 -0.4780656 -0.21722737 -0.08253135
-0.022737911 -0.079460725 -0.3091418 -0.23906218 -0.0071887197 0.019130688 0.2927727 -0.010671858
-0.24209267 -0.21487941 0.12939595 -0.07679445 -0.12560388 0.1856076 -0.07386176 -0.2465387
0.3789656 -0.15921293 0.39083079 0.24785368 -0.1463843 0.016863517 -0.0002947365 0.32507542
0.031273305 0.0374881 -0.254028 0.14177263 -0.124033354 -0.13685142 0.24709864 0.35171184
-0.03918152 -0.06332965

conv1.bias f4 [10]
00000000: 5c88 a1be a869 913d 3e13 923c 0696 9bbe
00000010: c314 af3e 5784 f33e f97d 81be 56e5 92be
00000020: 4127 64be fba1 64bd
-0.31549346 0.071002305 0.017831441 -0.30387896 0.34195527 0.47561905 -0.25291422 -0.28690594
-0.22280599 -0.05581854

conv2.weight f4 [20, 10, 3, 3]
00000000: 3c23 8d3a d508 833d 6381 a8bc 38f2 7b3d
00000010: 9bcd 1f3c c93f 483d 2841 b83c 4f1a b03d
00000020: ca7b 28bb 82d1 7a3e edc7 f3bd d2a2 c63a
00000030: d3f0 563d 799b b1bd 3c07 c8ba ee90 7d3e
00000040: fa8d 19be c211 e3bd fcff ba3e 97dc efbc
00000050: 7baf 023e 4ed9 003e 61ba aabe 9633 12bc
00000060: a784 2b3e 8f8d 41be 6c40 02be 078e b0bb
00000070: 40b9 3ebd 3e58 d7bb 1c41 963d f2e8 26bd
00000080: ddcb c5bc 9886 cbbc 7251 6fbd 6058 b2bd
00000090: 20cb 053d c045 603e fdcb 853d a18d 4f3e
000000a0: 9a3a 713c 06f2 0bbb d27d 9e3d b78e a13d
000000b0: faff b2bd de5c 873e 16ad de3d 8080 12bd
000000c0: a6e2 953e 5c8b bd3d 1be1 87bd 08a3 ad3e
000000d0: b9c6 0f3d f756 7e3d 2c62 a1bd 2782 863d
000000e0: 9476 8cbd 63db fcbb 51db b93d d458 47bd
000000f0: 7b2a 69bd 352b 2a3d 74a5 8a3d eb6e b63c
00000100: fe0e 0abd b206 c13d d6f4 633d 5f15 a43c
00000110: 1f77 033c fdc5 9fbc 2491 2abd 3b9b c03d
00000120: 6346 0339 4e94 323d 3359 babd 2a65 65bd
00000130: f521 1fbd c09d 8dbd 84b2 ae3d 0947 79bc
00000140: 13dc b03d f506 cb3d 6475 3a3c 4251 1ebd
00000150: 492d 0b3d 5402 f43d 663b 913d f48e 803d
00000160: d9db 423d 66a2 5f3d 92cb 88bc 9945 bebd
00000170: f562 4dbc 5fbc 1e3b 80b0 843d e2a4 263d
00000180: 5d7d c6bd 8ab3 bf3d 57c8 653d 1373 213e
00000190: 74d6 9a3d b470 683e 870e f13c 8093 81bd
000001a0: 67ec 85bd b452 3fbe d99b f7bd 8dae b8bd
000001b0: 5def d43e aa46 c63e 04de d23e 64cd 483c
000001c0: 7ba5 febd 3421 f2bb 6222 a1be 24ba 15be
000001d0: 0bd5 293d d561 78bd c2dd c83d ad9c d03d
000001e0: 2c8d a0bd cb54 7abd 50df 803d 3898 23bd
000001f0: 6d17 423d 97c5 b93d a5cc 2c3e d9b0 003e
00000200: 2717 283e ac7e d33d 1cae fd3a eb2d 5bbd
00000210: 103d 333e e427 dfbc 503b af3b 7c80 2c3e
00000220: a364 96bc ebd6 453d faa4 31bd 3a3a 0cbe
00000230: 5466 43bd 17de 21be f688 18bd 9d07 7cbd
00000240: af71 b23d a66f cdbd de20 ccbd 2a44 ca3d
00000250: c355 02bd ecac 853d 931d 9bbc 82d7 663c
00000260: 5cae 6ebd 63e0 7d3b 747f 423c 841b acbd
00000270: 01d6 363c ed85 833d f723 68bd 4670 863b
00000280: e543 833c dced 36bc 06b8 c3bb 6758 8cbb
00000290: 58cc 0bbd 6ca1 213d 3008 08be c6a3 afbd
000002a0: f1f0 a6bd 8c41 1dbe 7e6d e2bd 9e37 653c
000002b0: 73f8 cdbd 3d05 7c3d b74c 86bc d531 f4bb
000002c0: 5de3 1e3d 2ee1 7b3d 5fcc ac3d b0d7 51bc
000002d0: 7442 553c e02f 11bd 35f1 58bd f646 8fbd
000002e0: 86e8 903c 7361 183d 2bc6 bdbc d437 703c
000002f0: 8da4 d0bc 3225 b639 121f 003c e558 c5bd
00000300: 31fa 6abd 14de a7bd 6262 2a3d 3c48 8bbd
00000310: d528 08be 652d 87bd 0e8a eb3d 237f 763e
00000320: 47c3 a33d 9af6 193e 1bf8 d63d 70c4 84bd
00000330: c677 4bbe 51df 80be 86ea 4d3d 051d 5f3d
00000340: f4ec 92bd 40fb a4bd 7eac 4dbd 867e 90bd
00000350: 72a7 f239 e7da 2a3d 325e 8b3d 8909 aebc
00000360: 5aaf e0bb 06da 50bc f573 4fbd 93d9 5abd
00000370: b815 56bb 6a70 9f3d cfe8 e33d d977 713d
00000380: c837 d73c d203 e13c 7960 4f3c 7ac6 b23d
00000390: 4370 bdbd 53b7 f03d 895f 7b3c ef4f fbbc
000003a0: a580 18be f5b1 3bbc 4a7d 14bd 68e2 1dbd
000003b0: 2f2a 4fbc 93df 9b3d fd54 cd3d 6054 6bbd
000003c0: 0a46 62bd b8ed 92bd 7a09 dabc 7ce3 4ebb
000003d0: a2ba d6bd 7173 5ebd 50f6 8abd a87e 87bd
000003e0: 09a2 ca3c af64 863d 35aa fb3c 02da 45bd
000003f0: 81f3 e73c b12a 46bd f974 9ebd 76d8 ff3c
0.0010767947 0.06398169 -0.020569509 0.061510295 0.00975361 0.048888955 0.022492006 0.08598768
-0.002570855 0.24493983 -0.11903367 0.0015154725 0.05247576 -0.08672232 -0.0015260945 0.24762318
-0.14995566 -0.110873714 0.36523426 -0.02927999 0.12762253 0.12582895 -0.3334532 -0.008923432
0.16749822 -0.18901657 -0.12719887 -0.0053880247 -0.046563387 -0.0065717986 0.073366374 -0.040749498
-0.024145061 -0.024844453 -0.05842728 -0.087082624 0.03266442 0.21901608 0.06533048 0.20268871
0.014723444 -0.0021353974 0.07738842 0.07888549 -0.0874023 0.2643804 0.10872857 -0.03576708
0.29274482 0.09255096 -0.06634732 0.33913445 0.035101626 0.062094655 -0.07880053 0.06567793
-0.068585545 -0.0077165826 0.090750344 -0.048668697 -0.05692528 0.04154511 0.06769839 0.022269687
-0.033705704 0.09425105 0.055653416 0.020029722 0.008024006 -0.019503588 -0.041642323 0.09404608
0.00012519355 0.043598466 -0.09099045 -0.05600468 -0.038850743 -0.06914854 0.08530143 -0.01521469
0.08635726 0.09913436 0.011380527 -0.038651712 0.033978734 0.119145066 0.070914075 0.06277266
0.047572944 0.054598235 -0.016698632 -0.092906184 -0.0125358 0.0024221165 0.06478977 0.04068459
-0.0969188 0.09360416 0.056099262 0.15766554 0.07560435 0.22699243 0.029425872 -0.063269615
-0.06539231 -0.18683892 -0.120902725 -0.09017668 0.4158887 0.38725787 0.4118501 0.012256
-0.12433907 -0.007389212 -0.31471545 -0.14621788 0.04146294 -0.060640175 0.09807922 0.101861335
-0.078394264 -0.06111602 0.062925935 -0.03994009 0.04738562 0.090708904 0.1687494 0.12567462
0.16415082 0.10326895 0.0019354257 -0.053510588 0.17503762 -0.027240701 0.005347647 0.16845888
-0.018358534 0.048300665 -0.043370225 -0.13694087 -0.04770501 -0.15807377 -0.03723999 -0.061530698
0.0871309 -0.10031061 -0.099672064 0.098762825 -0.03182007 0.06527123 -0.018935 0.014089467
-0.05827175 0.0038738481 0.0118712075 -0.08403686 0.011159421 0.06422029 -0.056674924 0.0041027395
0.016023586 -0.0111651085 -0.005972865 -0.0042829993 -0.034130424 0.039460585 -0.13284373 -0.08576159
-0.08151425 -0.15357035 -0.1105604 0.013990311 -0.100571536 0.061528433 -0.016394002 -0.0074522295
0.03879105 0.061494045 0.08437418 -0.012807772 0.013016332 -0.035446048 -0.052964408 -0.069959566
0.017689 0.03720231 -0.023165783 0.014661748 -0.025469089 0.00034741458 0.007819908 -0.09636096
-0.057367507 -0.08196655 0.04159773 -0.06800887 -0.13296826 -0.06600455 0.11500941 0.24071936
0.079962306 0.15035477 0.10496541 -0.0648278 -0.19869909 -0.25170377 0.050272487 0.054471035
-0.071741015 -0.08055735 -0.05021333 -0.070553824 0.00046282593 0.041712668 0.06805076 -0.021244781
-0.006856841 -0.012747293 -0.050647695 -0.05343015 -0.0032666754 0.07785113 0.11128389 0.058952186
0.026271716 0.027467642 0.012657278 0.08729263 -0.09249928 0.11753716 0.015342602 -0.030677764
-0.14892824 -0.0114560025 -0.036252297 -0.038545996 -0.012644335 0.07611003 0.10025976 -0.057453513
-0.055242576 -0.071742475 -0.026615847 -0.0031568697 -0.10484816 -0.054309312 -0.06785262 -0.06615955
0.024735468 0.065621726 0.03072081 -0.04830361 0.028314354 -0.048380557 -0.077371545 0.031231146

conv2.bias f4 [20]
00000000: 1e4f c33d 7b0b 983d 6ed9 c3bd 26a5 e33d
00000010: 0f09 80bd 8ce0 873e 3300 773d f2b6 5dbc
00000020: 69b6 8a3d 6229 213e 6254 97bd e79f 793e
00000030: 17ab 91bd 1bcd 513d 51b7 babd b432 c3bd
00000040: b883 d53b 9097 78bc 76ff 24be a13a 0e3e
0.09536575 0.07424065 -0.09562956 0.11115484 -0.06251728 0.26538503 0.060302924 -0.013532387
0.06773073 0.15738443 -0.073891416 0.24377404 -0.07112711 0.051220994 -0.09116996 -0.09531155
0.0065159462 -0.015172854 -0.16113076 0.13889553

fc1.weight f4 [10, 500]
00000000: 6eda d93d 4c29 58bd 052d 70bc 03fe 433d
00000010: dfb8 8d3b c436 dd3d d549 7f3d 26b4 a7bc
00000020: d0cb cbbc 74b6 18bd 6070 263d 15b4 bd3c
00000030: cb7c b03c 8b82 88bd 3139 cd3d 2411 c7bb
00000040: 3595 203d 20b2 7fbd 6600 64bc 006c aabc
00000050: 6198 69bd 53cd 9cbc 9cae 6fbd 84e0 a8bd
00000060: 0edc bc3c 7187 b73d 9cc1 2f3d 5f46 b23d
00000070: b32d 053e 872c 403e a137 6d3d 31ee b43d
00000080: b805 573d 1b48 473d 7372 b5bc cafd eb3d
00000090: b6a4 8e3d 8dd0 3a3c 2345 433d cce9 593d
000000a0: f2d8 88bc 47a4 183d 764c 5c3d 5816 acbc
000000b0: aca2 cdbd ce77 723d ab8a 15bc 0ed2 acbb
000000c0: b0b9 8bbc d064 c2bd 1bce eb3b e5aa 893c
000000d0: 5372 343d e280 9a3c 3e36 173d 0a5a 9d3c
000000e0: 6828 99bc 094c 5a3d 8d4f 503d 82b2 52bb
000000f0: da88 04bd 43e0 b1bc bce9 4f3d 296a 9c3c
00000100: fbbd 4abb f709 943c 4f5c 2dbd cd86 233c
00000110: 76f5 663d 34f6 f5bc a7af 433d abfe 113b
00000120: 63c4 bc3c 0a67 5c3d 435b a9bc 6aea 22bd
00000130: d101 dc3c 2c25 553d 4abc 9bbc e5ab 2a3d
00000140: 02c3 8e3a 3194 b6bc 288f a33b 3293 17bc
00000150: 99db 753d 9001 063d 1672 863a 7c5f 963c
00000160: 305b 333c e551 89bc ea56 e23c 9bfb bdbc
00000170: cc6b 013d ccd2 d13b 01ad bf3c bbf2 713d
00000180: f876 953c 343d 03bd 4e70 5abd 0a2d b7bc
00000190: f191 583e f68a a73d 9a4e eab9 1ea3 19bd
000001a0: 4798 89bd 5534 1b3e 1010 853d 9ac2 b43c
000001b0: 224f 71bd f5bd 90bc 34fc 0f3e b223 8e3d
000001c0: 1c0f c73c cb4e c1bc 6edb de3c 05ce 323d
000001d0: 2c8d a0bc 3fa7 e7bc 8898 433d 5444 dab9
000001e0: 471c 20be affc 783d 4e87 58bd 8268 cabd
000001f0: 1519 f53d dc5c 93bc aa62 433d e5fd 1f3e
00000200: 44d8 b53d b575 2a3b 3a2e a33d c42f 853d
00000210: e5d3 8f3d 7551 263d 04a3 b43b a60f 963d
00000220: e446 d2bb d1e8 363d 7fb4 553d 1ab0 bf3d
00000230: f8ba a63d 85db cb3c 62c3 a13c cd20 9a3d
00000240: a8e2 013d f7aa ad3d 18aa c6bd 3c93 7ebd
00000250: 52b7 68bd b99e 143e 97c4 7cbd 5d1f 16bd
00000260: 7a1b d83c c999 013e 754c 9a3d 3fbb 873d
00000270: 60c5 82bc 5d04 823c cc0a 2a3d 759f e73d
00000280: 217f ad3d a842 b0bd 91a1 00be d382 873d
00000290: 97d5 863d ddcf 573d 9ccf c63c b366 6ebd
000002a0: ee47 39bd 064b 0cbd 6074 b53d 9e1d b13d
000002b0: 6dae 10be 06ac b1bd aa30 06be efb7 c23d
000002c0: df8a e33c 83fd 593c 0a24 9f3d fb6f 0b3e
000002d0: ec58 d53d 0495 fb3d 9a3b 383d 2e50 053c
000002e0: ebb2 e53c c761 7b3d 9e7b 253d 0b83 173d
000002f0: bea0 46bd 008e 2b3d 7213 f5bb e68c 793d
00000300: f668 9c3c 1859 283a 915f c9bd b4c2 22be
00000310: 2f3b 9a3d 44e0 aabd e778 afbd b455 bcbd
00000320: ce57 a63d 320e 583d fce2 633d 78e0 903d
00000330: e03d 603d 051e e73d 030f c73d 6ecf f93c
00000340: e836 8d3d a4a8 b03c 9786 c63d fc8c 903d
00000350: 4a03 debc 84e5 903d 2ff7 48bd 254b 8bbd
00000360: d907 e1bc 99cb 2b3d 1269 1c3d d5fe 96bd
00000370: 7d16 4fbd 38ca 093d 4134 cd3c 1781 92bc
00000380: ee97 5d3c 2689 0f3d e965 903c 2dbc 253d
00000390: 8d96 e43d 68f5 513c 6f51 09bd 606c 5e3c
000003a0: d886 993d 0224 86bc 754c 1d3c f398 743d
000003b0: 96d0 b4bc 162a 163d c636 c03c 5c42 b8bc
000003c0: befe 4c3c 424d 87bc dd6a 253c 9130 1ebc
000003d0: 8a11 e43c 20ed 83bc 2cb8 3ebd 0e50 a73c
000003e0: f70d d8bc 74e7 98bc 0b2a 4bbd d591 aebb
000003f0: a2c8 acbc 4624 70bc 7300 79bc 4913 163d
0.10637365 -0.05277376 -0.014659171 0.047849666 0.004325017 0.10801461 0.06232627 -0.020471644
-0.024877459 -0.037283376 0.040634513 0.023157159 0.02154388 -0.06665524 0.10020674 -0.0060750414
0.039204795 -0.062425733 -0.013916111 -0.020803452 -0.057030085 -0.019140875 -0.05851613 -0.08245948
0.023054149 0.0896138 0.04290925 0.087048285 0.13005714 0.18766986 0.05791438 0.08834494
0.05249569 0.04865275 -0.0221493 0.11523016 0.0696501 0.011402261 0.047673356 0.05320148
-0.01670501 0.037266042 0.053783856 -0.021006748 -0.10040793 0.059196286 -0.009127299 -0.005274064
-0.017056316 -0.09491885 0.0071962005 0.016805122 0.04405434 0.018860284 0.036916964 0.019207973
-0.018696025 0.05329517 0.050857116 -0.0032149856 -0.032357074 -0.021713382 0.050760016 0.01909359
-0.003093599 0.018071158 -0.04232436 0.0099808695 0.056386434 -0.030024625 0.047774937 0.0022277038
0.023042863 0.053809203 -0.0206734 -0.039774336 0.026856335 0.052037403 -0.019010682 0.041667838
0.0010891857 -0.02228746 0.004991431 -0.009251403 0.060023878 0.032716334 0.0010257389 0.018356077
0.010947034 -0.016762683 0.027629334 -0.023191264 0.031596944 0.006403303 0.023397924 0.059069376
0.018245205 -0.03204079 -0.05332976 -0.022360343 0.21149422 0.081808016 -0.0004469052 -0.037509076
-0.06718498 0.15156682 0.06497204 0.02206545 -0.058913358 -0.017668704 0.14061052 0.06940402
0.024299197 -0.023597142 0.027204242 0.043653507 -0.019598566 -0.028277991 0.047752887 -0.0004163111
-0.15635787 0.060787853 -0.05286341 -0.098832145 0.11967675 -0.017988615 0.047701515 0.15624197
0.0887914 0.00260101 0.079678014 0.06503251 0.070228375 0.040605027 0.005512597 0.073272035
-0.006417142 0.044655625 0.052174088 0.093597606 0.0814113 0.024884949 0.019746486 0.075257875
0.031710297 0.084798746 -0.097004116 -0.062152132 -0.056815453 0.14513673 -0.06171092 -0.036651004
0.02638029 0.1265632 0.07534114 0.06627511 -0.015963256 0.015871221 0.041514203 0.11309711
0.084715135 -0.08606464 -0.12561633 0.066167496 0.06583708 0.05268847 0.024268918 -0.05820341
-0.045234613 -0.034251235 0.088600874 0.08648227 -0.14129038 -0.08675389 -0.13104501 0.09507739
0.02777618 0.013305071 0.07770546 0.13616936 0.10417351 0.12284282 0.044978715 0.008136792
0.028039416 0.061372545 0.040401094 0.036990207 -0.04849314 0.04188347 -0.0074791247 0.060925387
0.019093018 0.00064219674 -0.09832681 -0.15894586 0.075308196 -0.083435565 -0.08567982 -0.09196034
0.08122216 0.052747913 0.05563639 0.07074064 0.05474651 0.11285023 0.0971966 0.030494418
0.06895238 0.02156479 0.0969364 0.07058141 -0.027101178 0.07075027 -0.049063858 -0.06801442
-0.027469562 0.041942213 0.03818614 -0.07372824 -0.050558556 0.033640116 0.02504933 -0.01788382
0.013524992 0.035042904 0.01762672 0.04046266 0.11161528 0.012814857 -0.033524927 0.013575643
0.074964225 -0.016374592 0.009600748 0.059716176 -0.022072118 0.03666123 0.023463618 -0.02249258
0.012511907 -0.016516332 0.010096279 -0.009655134 0.027840395 -0.016104281 -0.04656236 0.020423915
-0.026373846 -0.018665053 -0.049600642 -0.005327443 -0.021091763 -0.014657086 -0.015197861 0.036639486

fc1.bias f4 [10]
00000000: c5d8 923d eda7 23bc 83ae a63d 9cf5 393c
00000010: d2d0 dfbd 07da 923d 5043 3c3c 0fd1 1b3e
00000020: a8af 02bd 336c c8bc
0.07170252 -0.009988767 0.08138754 0.011350062 -0.10928501 0.07170492 0.011490658 0.15216468
-0.0319058 -0.024465656
