1_5_CNN_Layers/saved_models/fashion_net_4.3.solution2.pt (torch_old, 111221 bytes, 8 tensors)

conv1.weight f4 [10, 1, 3, 3]
00000000: 1b38 dc3e f34b d53e 11a7 68bd e720 173f
00000010: 3768 42bd 639a 57be 367c 07be 9c8f dabe
00000020: 6454 063e c530 4d3f 1d60 3f3f 4782 9c3e
00000030: dfa9 ce3e 6531 ed3e c7fd 133f 33c5 0b3f
00000040: 7a79 213f d94b 6a3e 4331 073f 22b8 a93e
00000050: fc18 1ebe ba58 9e3e 0313 853e aaf9 a7bc
00000060: c646 97be eb3e 17bf b788 6abf bd8b 663e
00000070: 508d 293f a298 44bf 56f6 613f d21b c63e
00000080: 8b25 a4bf ce30 333f 7a79 c93e abb1 93bf
00000090: 9537 343f 5b56 603e 4c8d ef3e 8e25 363f
000000a0: 591b 093c a75a f93e cdbf 9e3d c1a8 1ebf
000000b0: 7495 20bf d0f6 4ebe a0f1 9a3d 1053 3cbe
000000c0: a02e 5b3d d31b 13be 0044 c8ba 6032 1b3c
000000d0: cac5 88be d8d7 7b3d 5856 433d b069 3f3d
000000e0: 0e78 0a3f 6b4e b53e f58f 013f e3c6 e2be
000000f0: 192c 173f 82f9 053f 3e96 13bf 5dfd 9f3e
00000100: 1e13 bc3f 3e95 123f fcf0 36bf 4670 193f
00000110: 5bd8 213f adf7 3fbf 28a6 3c3f 8b93 863d
00000120: 7d61 903e 45e4 0d3f 3af5 313f 15fd 903e
00000130: dcee 113e 9b67 b43e a51f 17bf 3060 39bf
00000140: fd6f 8cbf 42d9 4e3e 6eb7 31bf 1f7f 59bf
00000150: 7ef6 dc3e cbe9 4fbe a090 63be 629a fcbd
00000160: 447d a63e c8c6 0f3f
0.43011555 0.41659507 -0.056799952 0.5903458 -0.04746267 -0.21054988 -0.13230976 -0.4268769
0.1311813 0.8015254 0.7475603 0.30568144 0.40363976 0.46326748 0.5780911 0.5459778
0.63075984 0.22880496 0.5280954 0.33148295 -0.15439218 0.30927068 0.25991067 -0.020504791
-0.29546183 -0.5908038 -0.9161486 0.22514243 0.6623125 -0.767954 0.88266504 0.386931
-1.2823957 0.69996345 0.39350492 -1.1538595 0.7039731 0.21907942 0.46787488 0.71151054
0.008368337 0.48701975 0.07751427 -0.6197625 -0.6272805 -0.20211339 0.075656176 -0.18391061
0.053511262 -0.14366083 -0.0015279055 0.00947246 -0.267134 0.06148514 0.047689766 0.04673165
0.5408944 0.3541139 0.50610286 -0.44292364 0.5905166 0.52333844 -0.57651126 0.31247988
1.4693334 0.57258976 -0.7146146 0.5993694 0.6322076 -0.749873 0.73691034 0.0657111
0.28199378 0.55426437 0.6951481 0.28318086 0.14251274 0.35235295 -0.5903266 -0.72412395
-1.0971676 0.20200065 -0.69420516 -0.84959596 0.4315681 -0.20304029 -0.22223139 -0.12334134
0.32517445 0.5616269

conv1.bias f4 [10]
00000000: 887c 84be fa95 8bbc 626d 383e 90bb 47bc
00000010: 3bb6 b63a aed8 89be ea41 1db9 a7be a5bb
00000020: 8784 c63d dd69 be3e
-0.2587626 -0.017039288 0.18010476 -0.0121907145 0.0013939807 -0.26923126 -0.00014997242 -0.005058128
0.09693246 0.37190142

conv2.weight f4 [20, 10, 3, 3]
00000000: 438a 573d 3d07 523b c2dc 3f3d 2df4 5f3d
00000010: a64b 273d 013e b7bd 67e1 c9bc b309 083e
00000020: e0bd 9bbb 07cd 2cbe 082c 6dbe c916 0c3e
00000030: 5e5c 58be 840b 823d a491 8a3d 9a87 ed3b
00000040: 2c8d 813e 63d3 b93c d7ec c6bc a0d7 06be
00000050: 8c4d 83bd cd06 b5bd 4d74 c3bd 9705 69bd
00000060: 3f36 9d3d 7612 3b3e 51d6 173e b003 cf3d
00000070: 73e9 82bc 1a3c 44bc babe 663d bfe9 7dbe
00000080: 85c0 a2bd 9f8f 9c3d 829c 93bd bc09 dfbd
00000090: eb50 ec3c 9bc3 29be 9257 823d 77aa cf3d
000000a0: dd57 123d 789c 2ebc a067 723e a822 ce3e
000000b0: ea05 6a3e dcde e8bc 9c92 d8bc 54fa a0bc
000000c0: 8970 b43d 00cc cbbb 9cb7 98bc d26b 013d
000000d0: 96ba 273d 992b d6bd 0ab8 83bd 7bb4 36bd
000000e0: 1896 533d bb08 6ebd f01d f63d 0bfc debd
000000f0: 423d 2b3e eb1d 793d 7fbd bb3b 72e6 2ebe
00000100: 54da 02be d6da 0d3e 1881 09bd d657 3bbe
00000110: 1d9c 6cbc 2e22 373e 85df d53d 6cd3 1dbe
00000120: 7e8d 2bbe daff 43bd d445 93bd face 38bd
00000130: 8827 643b 57c5 d7bc f5c5 993e fcd6 b63e
00000140: 051e 003f 7926 acbd ce4d 773d fc19 003c
00000150: fe86 a6bd 510a 893b 7d04 98bd 3a9b 343c
00000160: 3b53 cbbd 7c1f 07be 3bce 66bd 2c59 d63d
00000170: 057b a8bd fcb9 71bd fee0 b13c 1b1c 903d
00000180: 0f92 9abd ac90 5a3d 7826 d83d 9cd2 5abe
00000190: c30b 42be 5e61 ae3e 4be2 d0bd 98aa 85bd
000001a0: 76ae 7a3e 807c c63e b669 393d 7420 15bf
000001b0: 4447 9c3d 979c 9fbd f065 dfbb a3d8 0abe
000001c0: 1cf7 333c 4b66 243e b456 b0bc 0d3c 793c
000001d0: 9829 6c3e 531b 5f3d faf4 42bd 8f68 75bd
000001e0: 77c1 c83d 0734 9abd 9c67 33be f094 153e
000001f0: ca89 5c3e 3d03 5b3d cbbe 18be 640e c6bc
00000200: 9c37 84bd 7cee c4bd 3e0b 833d 3c9e 193e
00000210: 3535 eebb e563 31bc bd1a 363e dc57 e93c
00000220: ab01 c03d 0948 d63d 8b49 5ebd c02c d1ba
00000230: a165 68bd 9235 78bd ba9e 84bd f499 9e3c
00000240: dca2 3abe b76e e1bd 1839 073c b103 48bc
00000250: 8bee b1bd c009 b73c 0369 a23d d644 4a3e
00000260: dea2 5dbe acc7 f9bd 0c23 483e f0e3 223e
00000270: ba55 b8bd 3b98 c2bd b73d 9e3e b401 823e
00000280: 1469 ccbd aa01 8bbe 5f0c ddbc e1a6 98bd
00000290: 7954 3b3d df48 5cbe 2658 263e 2e2e c43e
000002a0: ecbb c3bd 14b4 ccbd a4b5 983e 97e8 5fbd
000002b0: 1023 a73c 1d9c 2b3d e677 813d 8e52 bbbd
000002c0: 7cc2 77bd f7ef 69bd 841e b2bc a20e 393b
000002d0: 9482 443d b97d fc3c 5075 e73b 0997 f6bc
000002e0: edd9 9abd c6d4 02be 47a4 94bd d9d8 973d
000002f0: 26ae 673d 84a4 dabd ec8e 6fbd ddec 4dbd
00000300: ec2a 36be 762f cabd 823e 213c 096e b5bd
00000310: 5d6a 4d3d ca12 19be 3451 b3bd 4f12 94bd
00000320: a2d6 1ebd 0ecf 1cbc 9875 0cbe 17e9 bf3d
00000330: 9858 e2bd a972 8bbd 4325 533e 6523 2e3c
00000340: 9d96 bb3d 6785 e7bd bef8 373e f469 d9bb
00000350: 3647 c93d 3c67 003e 3d05 a23e bb56 803e
00000360: 388e 5d3b 6dd3 8a3e 2cf9 84bd a973 143e
00000370: bc6b 183e 7a52 353e db58 f3bb 7d35 9b3e
00000380: 6391 643e 2b3d 4bbd ceee 003d 01e2 873d
00000390: 9b38 b73d 0067 13bc 8801 2d3c da86 4e3d
000003a0: ea58 afbd 76c4 b6bd 5ca3 ec3c 4bc4 823d
000003b0: ce88 7cbd 9b93 dbbb ea03 8ebc 5dbe 453d
000003c0: 44b0 55bd 6478 993e e465 a13d ff22 cb3d
000003d0: 4879 0bbe ee6e 71bd 913b 853d 4f28 b9be
000003e0: f980 673e f27d 853e 8bd0 1fbc 071f d0bc
000003f0: e445 da3d 2da5 efbc 3a7e b83d 9bf7 283c
0.05262209 0.0032047771 0.04684139 0.054676224 0.04084363 -0.08947373 -0.024643613 0.1328495
-0.0047528595 -0.16875087 -0.23161328 0.13680567 -0.21128985 0.06349853 0.0676606 0.007248831
0.25303018 0.022683805 -0.024282856 -0.13168192 -0.06411275 -0.08839188 -0.09543667 -0.056890097
0.07676362 0.18268761 0.14827849 0.10108125 -0.015980458 -0.01197722 0.056334235 -0.24796198
-0.079468764 0.07644581 -0.07207586 -0.108905286 0.028847178 -0.16578524 0.06364359 0.101399355
0.035728324 -0.010657422 0.23672342 0.40260816 0.22853819 -0.02842658 -0.026437096 -0.019650616
0.08810527 -0.006219387 -0.01864224 0.031596966 0.040949427 -0.10457534 -0.06431587 -0.044605713
0.051656812 -0.058113795 0.12017429 -0.10887917 0.16722587 0.060819548 0.005729377 -0.17080095
-0.12778598 0.1385301 -0.03357038 -0.18295226 -0.014441517 0.17884132 0.104430236 -0.15412682
-0.16753194 -0.04785142 -0.07191053 -0.045119263 0.0034813602 -0.026339216 0.30033842 0.35710895
0.50045806 -0.084057756 0.060376935 0.007818695 -0.081312165 0.004182138 -0.07422731 0.011023337
-0.09927984 -0.13195604 -0.05634902 0.10466227 -0.08226589 -0.05901526 0.02171373 0.07036611
-0.0754739 0.053360626 0.10554212 -0.21369404 -0.18949799 0.3405866 -0.10199412 -0.06526679
0.24480614 0.3876686 0.04526683 -0.58252645 0.0763078 -0.07793539 -0.006817572 -0.13559203
0.010984208 0.16054647 -0.021525718 0.015212071 0.23062742 0.054469418 -0.04759691 -0.059914168
0.098025255 -0.07529455 -0.17519993 0.14607596 0.21536937 0.053469885 -0.14916532 -0.024176784
-0.06455919 -0.096158 0.06398629 0.15001768 -0.0072695264 -0.010827039 0.17783637 0.028484277
0.09375318 0.10462958 -0.054269355 -0.0015958771 -0.056737546 -0.060597964 -0.06475587 0.01936052
-0.18226188 -0.11007445 0.008253358 -0.012207911 -0.086880766 0.022343516 0.07930186 0.19752821
-0.2164416 -0.121962875 0.1954462 0.15907264 -0.09000726 -0.09501692 0.3090646 0.25391924
-0.099809796 -0.27149707 -0.026983438 -0.074537046 0.045734856 -0.21512173 0.16244563 0.38316482
-0.09557328 -0.09995285 0.2982608 -0.054665174 0.020402461 0.041896928 0.06321697 -0.091466054
-0.06048821 -0.057113614 -0.021743067 0.0028237482 0.04797609 0.030821668 0.0070635453 -0.030101316
-0.07561097 -0.12776479 -0.07257896 0.07414407 0.056562565 -0.1067591 -0.05848591 -0.05027472
-0.17789811 -0.09872334 0.009841563 -0.08858878 0.050150264 -0.14948574 -0.08755723 -0.072300546
-0.03877891 -0.00957085 -0.13716733 0.0937063 -0.11052054 -0.06808979 0.20619683 0.010628556
0.091595866 -0.11304741 0.17965981 -0.006634945 0.098280355 0.12539381 0.31644621 0.2506617
0.0033806693 0.2711443 -0.06492838 0.14497246 0.14884847 0.17707244 -0.007426364 0.30314246
0.22321086 -0.04961888 0.031477742 0.06634904 0.089463435 -0.008996725 0.010559447 0.050421573
-0.08561881 -0.08924191 0.02888649 0.06385096 -0.061653905 -0.0067009456 -0.01733585 0.048277248
-0.052170053 0.29974663 0.07880762 0.09918784 -0.13620484 -0.05894368 0.06505502 -0.36163566
0.22607793 0.2607265 -0.00975431 -0.02540542 0.10657862 -0.029253567 0.09008451 0.01031294

conv2.bias f4 [20]
00000000: 92dc 42be 37ea 89be 25ef 2dbe 582f 833e
00000010: 45d2 623c eb6b 603e 63f1 28be 3b51 4b3d
00000020: e1f6 58be e765 febb a6a0 0fbe 2b12 433e
00000030: 6603 383d 64fd e73e 5dde 11bd 2e88 883d
00000040: 4dae b4bc 401d f4bd 54bc 193e dff9 ccbc
-0.19029453 -0.26936504 -0.16985758 0.25622058 0.0138440775 0.21916167 -0.16498332 0.049638014
-0.21187927 -0.0077636125 -0.14026126 0.190499 0.044925116 0.4531051 -0.035612453 0.06666599
-0.02205577 -0.119196415 0.15013248 -0.025021492

fc1.weight f4 [50, 500]
00000000: 823e 983d ad66 0bbd f21a bd3b d38b 063d
00000010: aa1e 113c 3262 fe3c cd42 2e3c 57c0 bd3c
00000020: 2db2 0d3d 3c5b 843b 1767 423c b64d 2bbc
00000030: f04f adba b8bf 193d 7c91 b4bd 1645 d3bd
00000040: 80e4 f7bc 63da 833d 03be 11bd 3a1c 69bb
00000050: 1c1f 83bd f66a eebb 49ab 77bd c364 71bd
00000060: 9c7b 44bc b938 bfbc de9b fb3c e9d2 603d
00000070: 76d9 40bd f677 df3d 8874 ce3c 8371 8cbc
00000080: 5582 043d 15b9 bfbc 856d e43d 3c3b 3a3c
00000090: 069f cb3c ec8e 48bc 8d33 1b3d 83ba 65bc
000000a0: 1c8a 9fbd 782d 72bc 6d38 2a3d dfb1 61bb
000000b0: 79b9 4a3c 848e dfbd 558b 443a de0b 453d
000000c0: 26e5 b13d ab9c 92bd b238 d83d c182 113d
000000d0: 84a2 193c a7ac 8ebc 083d 843c de05 5c3d
000000e0: 9e78 23bd b82d 113c 88be 0b3d e099 af3d
000000f0: d06a 87bd 87a9 8cbd 7750 893c 4088 f4bb
00000100: 6f9f 1abd d738 14be dec5 7e3c 9226 2d3d
00000110: 3a7a cd3d 030f aabd f461 13be 8a45 ad3c
00000120: b6c2 cc3c 052f f63c c2bb 51bd 6853 0f3e
00000130: beb1 28bd 254e 75bd 5ddb 063c cf05 3a3d
00000140: 05a9 e6bc a217 b2bc 002d 213d 100f cdbc
00000150: a576 563d f1ba 47bd 8d74 3fbc b2a1 28bd
00000160: 48c6 0e3d ec11 fabc d58c e1bd 7803 973d
00000170: 04dc 42bc 114d 6d3d 7faa cebd eff6 113c
00000180: 2b25 dbbc dde6 02bd a2e3 bfbc d072 58bd
00000190: b5dd f73d f6f9 123a af25 2cbd a975 91bc
000001a0: 1b19 9bbb 9c0a 5c3c 44b8 88bd a7a4 013d
000001b0: b126 0639 c0ec 70bc bff6 56bd f561 003d
000001c0: fed5 4abd fa88 303d 59a0 19bc 369a 863d
000001d0: 32b4 4ebc f3a6 7bbd b9c2 313d 38d1 9b3c
000001e0: a182 c63d fad0 933c d860 f2bd 521c 073b
000001f0: a6f9 483c 1e63 a43c 2b8a 663d 7797 b8bc
00000200: 7678 d83d 50bb 2e3e 28a6 7cbd 74d1 5bbd
00000210: 859a 583d 06d2 373d 5b84 843d c05a afbd
00000220: 6ec5 81bd f906 babb 6c55 b9bc 39b8 97bc
00000230: 5ae4 2fbc 3001 403d 676d 94bd e882 35bd
00000240: 70bd 15be bcf4 6d3e c051 ff3b 04a9 c6bc
00000250: 0aea b3bd ccb3 debb 2c37 a73d c607 ac3d
00000260: 9a44 1b3e 2de0 91bd 6748 20be 898c 9cbb
00000270: eab5 9b3d 4300 893d 3fe8 63bd ca26 babd
00000280: 7eab 49bc 7889 10bd c538 c83c c35e 5a3d
00000290: a571 80bd 78bd 76bd 96bc f6bd 33d8 1cbd
000002a0: a154 c43b 0cca 9d3d 2de4 bebd 8226 d3bd
000002b0: 0715 853c d768 8cbd 6546 053e 98d1 913d
000002c0: 4612 cb3b 034b 623c 13f4 b43c 35c8 063d
000002d0: 59e2 a63d 771a 843c 77bf 7cbb 2f74 24ba
000002e0: 4675 d6bc b115 ec3c f055 3fbd e6d4 13bc
000002f0: 08c0 3bbd d843 23bd 8b15 18bd 0320 523a
00000300: ad17 1b3d 4770 7bbd c927 33bd 5eae b93c
00000310: 940a c43c c5e4 e03a 131d 913c 33e2 96bc
00000320: 12bb b1bd b253 c7bd f907 ee3d 071e 943c
00000330: 01ed 8b3d fe35 873c d111 f4bc 5dea b5bd
00000340: 6d0d 6ebc ce54 5d39 ddce a4bd cff7 963c
00000350: e194 263c f6ba 213d 0f4e 1e3d 214c 8cbd
00000360: 964a e93c 1cf3 053c 353e 833c 3d81 3fbc
00000370: 3f33 10bc b34a 73bc 82e3 de3c fe92 0dbd
00000380: 6521 c0bd d43d 7cbe 4370 cdbc 5be9 373d
00000390: 7c7d b03c 3702 2cbd 59c4 62bd 6e4a 083d
000003a0: 584d 86bd b72d 273d 89f5 083e 05cc dc3c
000003b0: fa1b d2bd 3995 fabc 686d 493d 23e7 c73c
000003c0: 40a4 743d 8f6d 17bd 01b7 05bd 2ad9 65bc
000003d0: 49eb 8abc f66d c5bc 67cd 32be b93a 36bd
000003e0: 6a50 1abe 5124 c23d db34 1f3d 0acd 653c
000003f0: d7fe a5bd ce1b 04bd b953 0e3d 7765 c33c
0.074337974 -0.034033466 0.0057710344 0.03284819 0.008857409 0.031052683 0.010636044 0.023163004
0.03459375 0.0040391963 0.011865399 -0.010455539 -0.0013222676 0.037536353 -0.088168114 -0.103159115
-0.030260324 0.06438138 -0.0355816 -0.0035569803 -0.06402418 -0.0072759343 -0.060466085 -0.058933984
-0.011992361 -0.023342477 0.030713972 0.05488864 -0.047082387 0.109115526 0.02520205 -0.01714397
0.032350857 -0.023403684 0.11153702 0.011366662 0.024856102 -0.0122411065 0.03789096 -0.014021519
-0.07790014 -0.014781348 0.041557718 -0.0034438295 0.012373322 -0.109158546 0.0007497569 0.04810702
0.08686285 -0.07158788 0.10557689 0.035525087 0.009377126 -0.017416311 0.016142383 0.053716533
-0.03990995 0.008860998 0.03411725 0.08574271 -0.0661217 -0.06868272 0.016762001 -0.0074625313
-0.037749704 -0.14474808 0.015550105 0.04227311 0.100330785 -0.083036445 -0.14392835 0.021151323
0.02499519 0.030051718 -0.05120445 0.1399666 -0.041185133 -0.059888978 0.008231011 0.045415696
-0.028156767 -0.021739785 0.039349556 -0.025031596 0.052359242 -0.048762266 -0.011685503 -0.04116983
0.034857064 -0.030526124 -0.1101319 0.073737085 -0.011893276 0.057934824 -0.10091113 0.008908971
-0.026751122 -0.03195845 -0.023423973 -0.05284387 0.12102834 0.0005606705 -0.042028125 -0.0177563
-0.0047332174 0.013430264 -0.06675771 0.031651165 0.0001279365 -0.014704883 -0.05248141 0.03134342
-0.049520485 0.04309938 -0.009376609 0.06572382 -0.012616204 -0.061438512 0.043398593 0.019020662
0.09692884 0.018043984 -0.11834878 0.0020616245 0.012266552 0.020066794 0.05628411 -0.022533162
0.10569851 0.17063642 -0.061681896 -0.053666547 0.052881736 0.04487803 0.06470557 -0.08562231
-0.06336485 -0.0056771007 -0.02262374 -0.018520461 -0.010735596 0.046876132 -0.07247429 -0.044314295
-0.14623046 0.2323789 0.007791728 -0.024250515 -0.08784874 -0.006796336 0.0816482 0.0839992
0.15162888 -0.07122836 -0.1565262 -0.0047774953 0.07603057 0.06689503 -0.05564141 -0.0908943
-0.012308953 -0.03528735 0.024441132 0.053313028 -0.06271676 -0.060239285 -0.12047689 -0.03829212
0.005991534 0.07704553 -0.09320865 -0.10310079 0.016245378 -0.06855934 0.13015135 0.07120055
0.0061972467 0.0138118295 0.02208904 0.032905776 0.08148641 0.0161259 -0.003856627 -0.0006273416
-0.026178967 0.028818937 -0.046712816 -0.009022927 -0.045837432 -0.039859623 -0.03712992 0.00080156344
0.037864376 -0.061386373 -0.043739114 0.022666153 0.023930825 0.0017158022 0.017714059 -0.018418407
-0.08678259 -0.097327605 0.116226144 0.018080724 0.06832314 0.016505238 -0.029793652 -0.08882592
-0.014529568 0.00021107795 -0.080472685 0.018428711 0.010167331 0.03948494 0.03864866 -0.06850458
0.028477948 0.008175638 0.016020874 -0.011688528 -0.0088012805 -0.014849353 0.027208094 -0.03456401
-0.093813695 -0.2463296 -0.025077945 0.04490028 0.02154421 -0.0419943 -0.055363033 0.033274107
-0.06557721 0.04081508 0.13374914 0.026952753 -0.10259242 -0.030588733 0.049176604 0.024402207
0.059726954 -0.036969718 -0.03264523 -0.014028827 -0.016957896 -0.024100285 -0.17461167 -0.044489596
-0.15069738 0.09479583 0.038868766 0.014025936 -0.081052475 -0.03225308 0.034747813 0.023852093

fc1.bias f4 [50]
00000000: d9a6 ed3d 71e3 803d 7507 3a3d b4e9 5a3d
00000010: 700f c83d 457b a03e 1aa1 583d 5ceb 95bd
00000020: 4d6b 2abc c26a 273e 646b 223d e2b7 333d
00000030: 2a83 13bd c617 973d 1b7e 75bd 4818 90bd
00000040: 67a9 80bd 1238 7d3d 54bd 903d 01ad d83d
00000050: e79e a23c e4c3 2d3d 7c1c 633d 6b31 dcbc
00000060: 7a61 2c3d 6462 7b3d 2123 2e3e 876e 2f3a
00000070: 5780 f33d f83f 033c 9395 a7bd d4b4 4a3c
00000080: 6df0 e53c ca6c cbbd 3388 cc3d 6024 c8bc
00000090: c95c 8abc 625f a33d bbb8 023d 9072 1d3d
000000a0: 9760 053d f5e8 ee3d 58df 933d 8f0a ce3d
000000b0: bae3 d53c 530c 603d e8da 213c e9bb 9b3e
000000c0: 9304 523d 8db6 80bb
0.11604089 0.06293381 0.045417268 0.053445533 0.097685695 0.31344047 0.052888013 -0.07320282
-0.010401559 0.16349319 0.039653197 0.043876536 -0.03601376 0.07377581 -0.059934717 -0.07035881
-0.06282311 0.06182105 0.070673615 0.10579873 0.019851161 0.042423144 0.055447087 -0.026879033
0.04208515 0.06137313 0.17005588 0.000669219 0.11889713 0.008010857 -0.08182826 0.012372214
0.028068746 -0.09932859 0.099869154 -0.024431407 -0.016889947 0.07977177 0.031914454 0.038439333
0.03256282 0.11665527 0.07220334 0.10060608 0.026109565 0.054699253 0.0098788515 0.30416802
0.051273894 -0.0039280117

fc2.weight f4 [10, 50]
00000000: 2711 c03e a84e 41bd fb0b afbd 8e53 e83e
00000010: 51e0 233e 915a 613e fcf5 6f3e 099d 923e
00000020: 2e42 35be 3de4 7d3e 08be aebd 45ab 863b
00000030: fb18 aebd ad3e 9b3e d6dc 3e3c d7f2 803b
00000040: 6b40 cc3d e6c9 b93e 7e11 53be 741a 46bd
00000050: 364c a1be 299a b63e 6d29 ac3e 1bf5 b2be
00000060: c8e0 3abe 494e fdbc df7b 9b3e c140 fdbd
00000070: f884 123e 2a5a 3a3e a2b8 a53e f0b3 45bc
00000080: 6ebc 31be 6347 5dbe b8aa 18be 5d45 b6bd
00000090: 8202 54be 20d0 a83d 151a 35bd eb44 36be
000000a0: cf8d 963e 3b90 48be 867d e23e 2bd5 06be
000000b0: 08e8 68be 81ef d73e c71a 8fbc 2823 aa3e
000000c0: b8c7 f939 f343 66bd 0831 c0bd 057d 22be
000000d0: 89d8 b8be 129e 1cbe 399d 26be de54 a2be
000000e0: ff78 043e 829e 69be 74b7 25bd 8efd 91be
000000f0: f13a c63e 7f77 9f3e db09 07be 917b df3e
00000100: b6eb 58be 3b91 283e 430a 523e 1cc5 a63e
00000110: 57a8 c93e 868e c2bd 702e abbe 6272 d43e
00000120: 8ddb 63be b1e5 3bbe e545 a4be c70f fdbd
00000130: 81fd dabc eec9 6dbe 2418 6dbe a1b9 783e
00000140: a36a ba3e 1b28 e63e 81f7 1bbe 859c 773e
00000150: 0ebe 6fbe b3e2 87be 755f 8c3e 8dee 3c3e
00000160: aa8f 353d 5f52 9ebe e9a7 33bd b949 843e
00000170: c4f4 8fbe eb32 fa3e 6e24 763d fb44 8abe
00000180: 0322 8f3e 7ad2 a3be fb23 03be b580 153e
00000190: 72e0 fbbd 6631 afbe 21ee dcbe 33e7 a5be
000001a0: 1f19 953e a2db 853e cf7f c93e 3b57 9c3e
000001b0: a49c d93c f1ca 47be 6b8b 8abd 112d 82bc
000001c0: c295 783d b2f0 e2bd 3dbb 58be 2ce9 06bd
000001d0: c5e7 41be 8141 0fbe 878a 84be 5ed0 0dbe
000001e0: 8da4 9bbe 3789 69be 3a88 b93e f3d7 b9bd
000001f0: 7b9f dfbe 4e65 c03e fa00 7b3e c943 bc3e
00000200: befd b7be 6fe3 3ebe 96ed bcbd 67af 00be
00000210: 49d8 0f3f 534b e1bd 6e58 8f3e a83a ccbd
00000220: 567f 3a3e a017 123e dc0c 7d3e 97c5 9f3e
00000230: eef1 22be 4c74 76be c18f a23e 5321 a03e
00000240: 0616 acbe 816d d83e 5f53 413c 8603 b83e
00000250: 56c4 c0be bb68 a13d 1b63 b43e f1f9 afbe
00000260: aa64 a0be 4170 05be 2b2b 8c3e 1e46 c2bd
00000270: a4f7 aa3e 4f8e 1fbe 4a29 ca3d d680 7f3e
00000280: 6500 a2be 4d89 9d3e db2d 9dbc 5320 ce3e
00000290: 5371 55be 71da 90be 3c9d 703e 8041 b63e
000002a0: 33e1 a3be 080c 483e f11f a63d eb47 8dbe
000002b0: c0d7 77bd efca 8a3e 861c 80be 0322 21be
000002c0: 3304 f6be 97da 75be 959e 4bbe fc58 89be
000002d0: 6450 bf3d c32f be3e a522 6cbe c9ac 303e
000002e0: 220f 66be 703d dd3e 7125 8abe a671 0f3e
000002f0: c41f afbe ea9e 973e b9b5 6bbe ef72 583e
00000300: 5205 82be aab2 02be 915e d83d 9277 b53e
00000310: bd5a 87be 066b ac3e 9bfb 89be 40ee e9bd
00000320: 6eb5 aabe c55f a2be dcd5 95be 2cb6 1cbe
00000330: 1a01 a03c 700a 92be 9f12 c13e f033 aa3e
00000340: b8ec 4bbe 6074 87be 211c 09bd 4ebb a73e
00000350: 4006 7b3e 8b26 aa3d ed66 05be 6528 363e
00000360: 259f 433e bf8e 76be 484e 93be 2157 cbbd
00000370: ea10 093e bd02 07bd 2f4d b73e 416e 9d3e
00000380: 379c e9bd 9b93 d03e 2fee 80be cd89 d33e
00000390: 1b70 7ebe 3848 8bbe a2ff 9b3e 5839 4f3e
000003a0: 8167 043f 5813 923e 7507 65be 738b d0be
000003b0: 2dff 4e3e 0017 8dbe 72d4 813e e31f bb3e
000003c0: 4aa2 a9bc 7407 9abe 138b 55bd b5a9 35be
000003d0: 5a03 eb3d 2c1f cb3e 02f1 b2bd 9d68 5fbd
000003e0: 063f 96be c6a2 25be 7861 9a3e d072 f43e
000003f0: 4f90 e73e 26ae 84be b8c5 303e 1985 663e
0.37513086 -0.047194153 -0.08547207 0.45376247 0.16003539 0.22007205 0.2343368 0.28635433
-0.17701027 0.24794097 -0.08532339 0.0041097724 -0.085008584 0.30321255 0.011649331 0.0039351988
0.09973224 0.3628685 -0.20612141 -0.04836507 -0.31503457 0.3566449 0.33625355 -0.34952626
-0.1824981 -0.030921118 0.30367944 -0.123658665 0.14308536 0.18198457 0.32367426 -0.012066826
-0.17357036 -0.21609263 -0.14908874 -0.08899949 -0.20704082 0.08242822 -0.044214327 -0.17799728
0.29405066 -0.1958627 0.44236392 -0.13167255 -0.22744763 0.42174914 -0.017468823 0.33229947
0.00047641783 -0.056217145 -0.09384352 -0.15868004 -0.36102703 -0.15294674 -0.16270913 -0.31705374
0.12936781 -0.22814372 -0.040458158 -0.2851376 0.38716844 0.31145856 -0.13187353 0.4364896
-0.21183667 0.16461651 0.20511727 0.32572258 0.39386246 -0.094998404 -0.33433867 0.41493517
-0.2225172 -0.18349339 -0.32084575 -0.12356525 -0.026732208 -0.23221561 -0.2315374 0.24289562
0.36409482 0.44952473 -0.15231134 0.24180801 -0.23412344 -0.26540145 0.27416578 0.18450375
0.04432646 -0.3092222 -0.043861303 0.25837496 -0.2811643 0.48866972 0.060093336 -0.27005753
0.27955636 -0.31996518 -0.12806694 0.14599879 -0.12298669 -0.34217376 -0.43150428 -0.32402954
0.29120728 0.2614413 0.39355323 0.30535302 0.02656395 -0.1951101 -0.06764873 -0.01589063
0.060689695 -0.11081065 -0.21165176 -0.032937214 -0.1893607 -0.13989832 -0.25886938 -0.13849017
-0.3039898 -0.2280625 0.36236745 -0.09074392 -0.4367636 0.3757729 0.24512091 0.36770466
-0.35935777 -0.18641447 -0.092250034 -0.1256691 0.561894 -0.11000695 0.27997154 -0.09972125
0.18212637 0.14266825 0.24711937 0.31205437 -0.15912601 -0.24067801 0.317503 0.31275424
-0.33610553 0.42271045 0.011799662 0.35940188 -0.37649792 0.07881304 0.3523186 -0.34370378
-0.313268 -0.13031103 0.27376685 -0.0948603 0.3339206 -0.1558163 0.098711565 0.24951491
-0.31640926 0.30768815 -0.019186905 0.40259036 -0.20844011 -0.28291658 0.2349748 0.35596848
-0.3200775 0.1953584 0.08111561 -0.27593932 -0.06050849 0.2710795 -0.25021762 -0.1573563
-0.4805008 -0.24009167 -0.19884713 -0.26825702 0.09341505 0.37145814 -0.23060091 0.17253412
-0.2246671 0.43210936 -0.2698169 0.14008197 -0.34203923 0.2961343 -0.2301854 0.21137594
-0.25394684 -0.12763467 0.10564912 0.35442787 -0.26436415 0.33675402 -0.26949772 -0.11422396
-0.33341545 -0.3171369 -0.29264724 -0.15303868 0.019531775 -0.28523588 0.3770952 0.3324275
-0.1991452 -0.26455975 -0.03347409 0.3276009 0.24514103 0.08308133 -0.13027544 0.17788847
0.19103678 -0.24077891 -0.2877066 -0.09928728 0.13385358 -0.032961596 0.35801074 0.3074818
-0.11406749 0.40737614 -0.2518172 0.4131607 -0.24847452 -0.27203536 0.3046847 0.20236719
0.51720434 0.28530383 -0.22366126 -0.4073139 0.2021453 -0.2755661 0.25357395 0.36547765
-0.020707268 -0.3008381 -0.052134585 -0.1774052 0.11475249 0.3967222 -0.08737375 -0.054543126
-0.29344958 -0.16175374 0.30152488 0.47743845 0.45227286 -0.25914115 0.17262924 0.2251171

fc2.bias f4 [10]
00000000: 5d7e 2a3e a60d 1cbf 9817 643e 2017 003f
00000010: 3221 3abe 1f0a c6be 6d9c 183f e4b5 04be
00000020: 8ee3 7dbe fb03 aabe
0.16649766 -0.60958326 0.22274625 0.50035286 -0.18176726 -0.38679597 0.59613687 -0.12960011
-0.24793836 -0.33206162
