1_5_CNN_Layers/saved_models/fashion_net_ex.pt (torch_old, 111301 bytes, 8 tensors)

conv1.weight f4 [10, 1, 3, 3]
0.29911485 -0.059843726 -0.0326365 0.2227031 0.014854011 0.089029506 0.41738003 0.25144356
-0.082666755 -0.5132206 0.32159182 -0.31585225 0.053968713 -0.26398304 0.42475793 -0.16809927
0.647861 -0.4506521 0.65670437 -0.31256092 -0.42532727 -0.036031883 0.20828938 -0.32948044
-0.3621927 -0.28057796 0.76448166 -0.1340633 0.15979427 -0.24880505 0.2111501 -0.032050397
-0.17791627 -0.14891386 0.25213024 -0.08044107 -0.2807542 -0.25062183 -0.17619427 0.3258681
-0.123849854 -0.104403295 0.04188038 0.0161189 -0.31359297 -0.56568867 0.34011546 0.8203866
0.45688057 0.5701547 0.5421313 0.054219123 -0.21597067 -0.5003695 -0.57730764 0.31855014
0.25206667 -1.154858 -0.0876599 1.2272481 -1.3578784 0.7636681 0.63775134 -0.5701831
-0.7326736 -1.0222434 -0.56710184 -1.2829281 -1.3438917 0.7150794 -0.64011943 -0.53367615
-0.036101755 1.2822754 0.80860066 -1.0209018 0.6626436 0.34134582 -0.52405334 0.32856268
0.28472796 0.4173183 0.58537686 0.55019915 0.43959028 0.10306313 0.2509995 0.35239264
1.0273267 0.1962802
00000000: 9525 993e b21e 75bd daad 05bd 480c 643e
00000010: 3d5e 733c 1a55 b63d d6b2 d53e 36bd 803e
00000020: 304d a9bd 6d62 03bf afa7 a43e 63b7 a1be
00000030: 4c0e 5d3d c928 87be df79 d93e 3722 2cbe
00000040: 38da 253f dfbb e6be c71d 283f fc07 a0be
00000050: 7fc4 d9be 2b96 13bd d049 553e a9b1 a8be
00000060: 5271 b9be eaa7 8fbe 12b5 433f e447 09be
00000070: 1ca1 233e c0c6 7ebe bb37 583e 4747 03bd
00000080: af2f 36be e07c 18be 3717 813e 4abe a4bd
00000090: 04bf 8fbe 8151 80be 456c 34be 2fd8 a63e
000000a0: fea4 fdbd 65d1 d5bd c38a 2b3d c90b 843c
000000b0: 428f a0be f9d0 10bf 9d23 ae3e db04 523f
000000c0: 40ec e93e a9f5 113f 1ec9 0a3f df14 5e3d
000000d0: 6a27 5dbe 3718 00bf 6fca 13bf 0119 a33e
000000e0: e20e 813e 63d2 93bf 0987 b3bd 7716 9d3f
000000f0: f6ce adbf c17f 433f ac43 233f 85f7 11bf
00000100: 7f90 3bbf dfd8 82bf 962d 11bf fd36 a4bf
00000110: a504 acbf 720f 373f dede 23bf 009f 08bf
00000120: 6fdf 13bd 9a21 a43f 7400 4f3f e9ac 82bf
00000130: 03a3 293f e1c4 ae3e 5c28 06bf 5e39 a83e
00000140: ddc7 913e bfaa d53e 42db 153f dad9 0c3f
00000150: fa11 e13e c312 d33d 0283 803e cf6c b43e
00000160: 717f 833f adfd 483e

conv1.bias f4 [10]
0.002512339 0.18384917 0.03645216 -0.31245935 -0.21043845 0.056306105 0.00084294804 0.65250283
-0.0034744455 0.0031022886
00000000: 0ea6 243b f542 3c3e dc4e 153d acfa 9fbe
00000010: 2d7d 57be 3ba1 663d 49f9 5c3a 6d0a 273f
00000020: 86b3 63bb c44f 4b3b

conv2.weight f4 [20, 10, 3, 3]
-0.11416454 0.11905431 0.010105881 -0.05913197 -0.09368064 -0.12362249 0.067326665 0.051074527
0.011880688 0.10547284 0.10155266 -0.01893841 -0.06210213 0.08064855 0.09156704 -0.061868742
0.11517857 0.08511625 -0.032171693 0.06436088 0.16972692 0.022068547 0.1801322 0.13843347
0.098412275 0.20302412 0.1542161 0.07216697 0.05935453 0.10044778 -0.05152184 -0.07910925
-0.060562335 0.006524904 0.10368733 -0.04514414 -0.06194687 -0.07185335 0.021696223 0.102340564
-0.027811259 -0.09713332 -0.07328574 0.080851555 0.08312358 0.17887095 0.24770653 0.33335644
0.026821615 -0.04292131 -0.19557288 -0.053289633 -0.04239932 -0.05500392 -0.085075215 0.035047244
0.10051961 -0.15432262 -0.10278632 0.24502654 0.1264397 0.21218733 0.10096206 -0.12126171
-0.121903166 -0.05113377 -0.07764956 -0.17296739 0.04003231 -0.07934253 -0.11032366 -0.08639114
0.03762651 0.19550727 0.3664628 -0.021365354 0.027683223 -0.13470992 0.1318078 0.05908858
0.15530396 -0.02408579 0.1926541 0.0057617193 0.008108751 -0.103551835 -0.5350934 0.042044926
0.070280895 -0.23419106 -0.083890766 -0.029886927 -0.1301015 -0.044036604 0.122968495 -0.013711449
0.043916922 -0.024528297 0.07543559 0.02237087 -0.07160095 0.005197773 0.024876064 0.028460914
0.032973334 -0.06983223 0.034680795 -0.0067352047 0.009038492 0.027580747 0.066840306 0.07300915
-0.06287055 0.0908445 -0.072658814 -0.013309494 0.07557804 -0.08646673 0.081940874 0.061400104
-0.094214514 0.08704243 0.10096571 -0.026397513 0.05376366 -0.051712893 -0.07040036 0.019631667
-0.054104213 0.04224676 0.09907114 -0.10326263 0.10319614 0.07484798 0.10115819 -0.3202095
-0.2520677 -0.19165155 0.17914185 -0.016455116 -0.1657042 0.17585832 0.109777465 0.0263998
-0.09741621 0.116595395 -0.100625455 0.19156024 0.07857566 -0.115547866 0.027048253 0.016677393
-0.08865052 0.42136925 0.27034262 -0.0027445222 0.011649919 0.17500803 0.005933415 0.0044266223
0.11859535 0.09206655 -0.29341063 -0.1926398 -0.25137296 0.19656312 0.0037056587 -0.019423382
0.23173644 0.06754704 -0.098011576 -0.31210792 -0.40468174 -0.3458943 0.0783999 0.004130035
-0.17983519 0.25612268 0.26594383 -0.06101456 0.05956227 -0.053763714 -0.06866417 -0.088394836
0.010378301 0.13291088 -0.060200196 0.030957263 0.0160773 -0.11057288 -0.010073518 0.04901586
-0.111384764 0.13946827 0.052177504 0.094466485 -0.03491043 -0.05908617 0.024855878 -0.0125764
-0.1099916 0.0061148927 -0.09647415 -0.048915204 -0.080035865 -0.087578095 0.030444173 -0.006487715
0.06587786 -0.028511886 -0.07414305 0.05578842 -0.070303455 0.061670303 -0.042685077 -0.061619595
0.051884655 -0.09745969 0.057627726 -0.013515867 -0.00062869344 -0.008896955 0.052474566 -0.061627533
0.010148616 -0.14562011 0.051899582 0.08807975 -0.17122222 0.090201676 0.08349248 -0.029967943
0.076001935 -0.014161144 -0.03158798 0.34546378 0.0086761415 -0.07459259 0.13836361 -0.13439116
0.096998274 -0.047364786 -0.067392215 0.29298624 0.102317 -0.15546653 0.39137617 -0.002859926
-0.15710054 0.21708865 -0.17548545 -0.07044337 -0.44202107 0.07491535 -0.0010819711 -0.18004712
00000000: 19cf e9bd bfd2 f33d 2393 253c 5d34 72bd
00000010: a3db bfbd ca2d fdbd 90e2 893d 8633 513d
00000020: 38a7 423c 2502 d83d d7fa cf3d b924 9bbc
00000030: ce5e 7ebd 112b a53d 8087 bb3d 146a 7dbd
00000040: bee2 eb3d 6e51 ae3d 77c6 03bd a3cf 833d
00000050: e5cc 2d3e 19c9 b43c 9374 383e 81c1 0d3e
00000060: 608c c93d 8ee5 4f3e d3ea 1d3e 47cc 933d
00000070: bc1d 733d 91b7 cd3d 9108 53bd 0804 a2bd
00000080: 3610 78bd ddce d53b 065a d43d 10e9 38bd
00000090: 00bc 7dbd d927 93bd 47bc b13c ee97 d13d
000000a0: 70d4 e3bc d6ed c6bd d616 96bd 8095 a53d
000000b0: b23c aa3d f229 373e c8a6 7d3e b2ad aa3e
000000c0: 01b9 db3c 41ce 2fbd 4244 48be 3b46 5abd
000000d0: e9aa 2dbd ca4b 61bd ea3b aebd b38d 0f3d
000000e0: 3add cd3d c006 1ebe a281 d2bd 3de8 7a3e
000000f0: 6979 013e a347 593e 32c5 ce3d 0f58 f8bd
00000100: 5ea8 f9bd a571 51bd bc06 9fbd 5d1e 31be
00000110: ebf8 233d 567e a2bd 5ff1 e1bd d7ed b0bd
00000120: 411e 1a3d 0f33 483e 03a1 bb3e 6506 afbc
00000130: edc7 e23c 66f1 09be a0f8 063e de06 723d
00000140: 0008 1f3e 904f c5bc 1e47 453e cecc bc3b
00000150: 91da 043c fc12 d4bd e2fb 08bf 4d37 2c3d
00000160: 6eef 8f3d c8cf 6fbe ecce abbd 6ed5 f4bc
00000170: 5439 05be ba5f 34bd e8d6 fb3d fca5 60bc
00000180: 3be2 333d 91ef c8bc fa7d 9a3d 1d43 b73c
00000190: 85a3 92bd 1552 aa3b e3c8 cb3c dd26 e93c
000001a0: 0c0f 073d 3304 8fbd 730d 0e3d feb2 dcbb
000001b0: 2f16 143c 05f1 e13c 92e3 883d d285 953d
000001c0: 46c2 80bd ae0c ba3d 25ce 94bd 1010 5abc
000001d0: a9c8 9a3d 7815 b1bd 9ed0 a73d ad7e 7b3d
000001e0: 8af3 c0bd 4d43 b23d 1cc7 ce3d 993f d8bc
000001f0: 4937 5c3d e6d0 53bd 102e 90bd 97d2 a03c
00000200: 619c 5dbd f00a 2d3d cfe5 ca3d 5c7b d3bd
00000210: 7f58 d33d e649 993d 062c cf3d 80f2 a3be
00000220: 040f 81be 4e40 44be f670 373e e1cc 86bc
00000230: 5dae 29be 3414 343e 02d3 e03d 6544 d83c
00000240: 2682 c7bd 91c9 ee3d b814 cebd 5e28 443e
00000250: 47ec a03d 5ca4 ecbd 4c94 dd3c 079f 883c
00000260: 678e b5bd b6bd d73e 596a 8a3e 71dd 33bb
00000270: 4ddf 3e3c 4e35 333e 186d c23b 330d 913b
00000280: 1ee2 f23d 638d bc3d eb39 96be 5e43 45be
00000290: f5b3 80be d847 493e a3da 723b c91d 9fbc
000002a0: 514c 6d3e 1a56 8a3d 4bba c8bd 9ccc 9fbe
000002b0: 7232 cfbe 0f19 b1be 2090 a03d 3f55 873b
000002c0: b726 38be 8322 833e ca29 883e 67ea 79bd
000002d0: 91f7 733d 5737 5cbd cd9f 8cbd 5a08 b5bd
000002e0: c009 2a3c ca19 083e 7b94 76bd 169a fd3c
000002f0: 8bb4 833c 0974 e2bd 660b 25bc dbc4 483d
00000300: b21d e4bd c5d0 0e3e 14b8 553d a577 c13d
00000310: 3dfe 0ebd 5704 72bd 8e9e cb3c 3f0d 4ebc
00000320: 4743 e1bd 705f c83b 3d94 c5bd 4f5b 48bd
00000330: d8e9 a3bd 255c b3bd 0f66 f93c e696 d4bb
00000340: f9ea 863d c291 e9bc 50d8 97bd 6682 643d
00000350: 42fb 8fbd 009a 7c3d 8cd6 2ebd d464 7cbd
00000360: 0185 543d f298 c7bd 0d0b 6c3d a871 5dbc
00000370: e7ce 24ba 89c4 11bc 92ef 563d 276d 7cbd
00000380: 6146 263c 701d 15be a894 543d 2863 b43d
00000390: e154 2fbe a8bb b83d 1bfe aa3d 557f f5bc
000003a0: e7a6 9b3d 2504 68bc 6662 01bd a1e0 b03e
000003b0: 6026 0e3c 00c4 98bd 31af 0d3e d69d 09be
000003c0: 08a7 c63d 9401 42bd ee04 8abd 4b02 963e
000003d0: 938b d13d 9e32 1fbe 7562 c83e 996d 3bbb
000003e0: f7de 20be 7d4c 5e3e 75b2 33be 9d44 90bd
000003f0: 9650 e2be 386d 993d edd0 8dba 465e 38be

conv2.bias f4 [20]
-0.034299336 -0.052012146 0.12450183 0.48489434 -0.16901435 0.134082 -0.12465833 -0.08525004
-0.14826377 -0.2267884 -0.05618259 0.0038045475 -0.23684461 0.0839662 -0.11044088 -0.057809524
-0.045681346 0.40885872 0.37398773 -0.0118146455
00000000: 767d 0cbd b00a 55bd d1fa fe3d 1244 f83e
00000010: 1912 2dbe cb4c 093e de4c ffbd 9397 aebd
00000020: 75d2 17be 383b 68be b71f 66bd b755 793b
00000030: 6587 72be 79f6 ab3d d42e e2bd aec9 6cbd
00000040: 5d1c 3bbd ee55 d13e 527b bf3e 3792 41bc

fc1.weight f4 [50, 500]
-0.03870311 -0.01842183 0.03855038 0.039511986 -0.00040429985 0.0015879184 0.036307123 0.020895205
-0.0025179465 -0.0676414 0.018036567 -0.010015461 -0.031450685 -0.06844592 -0.026140677 -0.048691656
-0.00964344 -0.08774567 0.04330915 0.008158238 0.0012830572 0.03418461 -0.008165681 0.009394548
-0.0031275575 -0.025551708 -0.008500512 -0.015805522 0.017050253 -0.0016545088 0.027011644 0.01476665
0.0054313075 0.00091417914 0.02032919 -0.05024311 0.023620358 -0.028801937 0.0016942204 0.019020326
0.08429363 0.026140423 0.01643622 -0.029476156 -0.053037677 0.10366238 0.0009950596 -0.03421845
-0.018585252 -0.017553894 0.010063575 0.068644695 0.04175186 -0.017760366 -0.03529414 -0.0092048
0.05271031 0.047086347 0.017703561 0.022439856 0.011659722 -0.010785006 0.090222076 -0.010496209
-0.04314143 -0.019683417 -0.018659752 0.025689358 0.016354045 0.009722722 -0.10970191 -0.041297924
-0.03808648 0.00046528762 -0.0022437733 -0.0015772681 -0.040245447 0.0337056 -0.011629767 0.03797233
0.009705019 0.02520407 -0.027973393 0.0265367 0.04428634 -0.044753797 -0.041983474 0.048931226
0.08430268 0.044367194 -0.01772795 0.01161907 0.009163868 0.051789224 0.0132734245 0.031254705
-0.011489992 0.070927635 0.04444527 0.03903517 0.060506705 -0.010007211 0.041104756 0.0558186
-0.006148434 0.05455715 -0.04153095 0.03232637 -0.010308449 0.00017226917 -0.026015077 -0.037000198
-0.01394322 -0.035323936 0.0040011746 -0.086759895 -0.012591887 -0.016491171 -0.048698213 0.028947018
-0.06346506 0.005093149 -0.036354303 0.013293673 0.014944748 -0.012828196 0.0067072776 0.049515128
0.003971776 -0.047141224 0.05696383 0.06427565 0.022877198 -0.031586934 -0.04887713 0.09477922
0.05599844 -0.12921314 -0.03961036 -0.092510656 0.00987968 0.009264075 -0.09883605 -0.029537892
-0.05098941 0.03808273 0.024900125 0.0498063 0.0065777823 0.016511109 0.04727201 0.032388248
0.043574575 -0.013072858 -0.0124301985 0.048663985 0.047713865 0.014852444 -0.00025593556 0.016158918
0.037068535 -0.05290474 -0.057733852 0.005260213 0.033488777 0.047183312 -0.00032321498 0.004649279
0.011799096 0.024923697 0.033453755 -0.052737854 -0.012455868 -0.046043716 0.010724896 -0.0035571493
0.002628915 -0.022331305 0.02964427 -0.040418874 0.019817997 0.04054911 0.005461596 0.016744696
-0.02542924 -0.041444577 0.021048766 0.011814818 -0.000543233 0.0045298263 0.014076762 -0.02653941
-0.01867899 -0.01682363 -0.008778278 -0.03512042 0.040924635 0.0019757077 0.03960302 -0.03840605
-0.017350994 -0.018778441 0.019017266 0.011075716 0.03227679 -0.03866669 -0.060411334 -0.06503281
0.026843367 -0.020270573 -0.05920974 -0.016159195 -0.0077269897 -0.051172916 -0.08248654 0.051525783
0.027607532 -0.03026564 0.031002302 -0.097239494 0.1092047 -0.0017798108 0.026016803 -0.0074320543
-0.010910172 -0.019127013 -0.02013835 -0.00517672 -0.012094753 0.03420264 0.009971846 0.012900498
-0.03576719 0.016620023 -0.1175331 0.061800234 0.028099239 -0.07379562 -0.020104056 -0.06486461
0.0045227325 -0.004901081 -0.070338994 0.021122882 -0.03395576 0.027142549 -0.0009944441 0.042632885
-0.041596368 0.0052328547 0.006969304 -0.024537241 0.050362483 -0.0005147741 0.04299578 -0.024602685
00000000: 2787 1ebd 61e9 96bc 01e7 1d3d 52d7 213d
00000010: 35f8 d3b9 b321 d03a c7b6 143d 6c2c ab3c
00000020: 2204 25bb 9387 8abd 6cc1 933c e317 24bc
00000030: 6fd2 00bd 602d 8cbd f924 d6bc e770 47bd
00000040: 85ff 1dbc 00b4 b3bd ef64 313d 21aa 053c
00000050: 412c a83a 2905 0c3d 59c9 05bc 97eb 193c
00000060: b5f7 4cbb d151 d1bc bb45 0bbc 957a 81bc
00000070: f9ac 8b3c 1adc d8ba 8647 dd3c d2ef 713c
00000080: 1cf9 b13b 86a5 6f3a 6789 a63c b8cb 4dbd
00000090: 7b7f c13c 0af2 ebbc 9a10 de3a 84d0 9b3c
000000a0: 24a2 ac3d 7124 d63c 40a5 863c fb77 f1bc
000000b0: 093e 59bd f14c d43d a96c 823a a528 0cbd
000000c0: 1940 98bc 2fcd 8fbc b1e1 243c 9795 8c3d
000000d0: 0004 2b3d 307e 91bc 9790 10bd bbcf 16bc
000000e0: c4e6 573d 9ddd 403d 0f07 913c cad3 b73c
000000f0: 6b08 3f3c 98b3 30bc 5ac6 b83d 4bf8 2bbc
00000100: 11b5 30bd 1e3f a1bc 56dc 98bc 7d72 d23c
00000110: ebf8 853c 0d4c 1f3c 65ab e0bd 0328 29bd
00000120: 9200 1cbd d9f1 f339 450c 13bb 56bc ceba
00000130: 69d8 24bd e20e 0a3d c78a 3ebc e088 1b3d
00000140: cd01 1f3c c478 ce3c 7528 e5bc 7e63 d93c
00000150: 9865 353d c24f 37bd ddf6 2bbd 1c6c 483d
00000160: e2a6 ac3d 60ba 353d 353a 91bc e95d 3e3c
00000170: 0c24 163c f020 543d c778 593c ef04 003d
00000180: 8540 3cbc 8242 913d 3e0c 363d 58e3 1f3d
00000190: e1d5 773d 49f5 23bc 765d 283d 0ba2 643d
000001a0: cd78 c9bb 5177 5f3d 5c1c 2abd a868 043d
000001b0: c5e4 28bc 27a3 3439 921d d5bc 858d 17bd
000001c0: 1a72 64bc d5af 10bd 491c 833b 2caf b1bd
000001d0: 344e 4ebc 7e18 87bc c777 47bd 4c22 ed3c
000001e0: f8f9 81bd 6ee4 a63b 40e8 14bd b5cd 593c
000001f0: d1da 743c 5b2d 52bc b9c8 db3b 60d0 4a3d
00000200: ac25 823b 2817 41bd e852 693d f4a2 833d
00000210: f668 bb3c 4d61 01bd 6333 48bd 9c1b c23d
00000220: 9f5e 653d 7350 04be 793e 22bd 3a76 bdbd
00000230: 62de 213c 59c8 173c 8e6a cabd 73f9 f1bc
00000240: 46da 50bd a3fc 1b3d 59fb cb3c b101 4c3d
00000250: 708a d73b 4e42 873c 4ca0 413d 8aa9 043d
00000260: 417b 323d 8a2f 56bc 08a8 4bbc e353 473d
00000270: 9d6f 433d aa57 733c 172f 86b9 b55f 843c
00000280: 2dd5 173d a4b2 58bd 557a 6cbd dd5d ac3b
00000290: 872b 093d 4a43 413d 2e75 a9b9 fb58 983b
000002a0: ff50 413c c82c cc3c ce06 093d a603 58bd
000002b0: b213 4cbc 5698 3cbd 79b7 2f3c 101f 69bb
000002c0: e049 2c3b 24f0 b6bc 8ad8 f23c 438e 25bd
000002d0: 5a59 a23c d316 263d 30f7 b23b 2c2c 893c
000002e0: fb50 d0bc cac1 29bd 766e ac3c f092 413c
000002f0: c067 0eba f06e 943b 38a2 663c 2d69 d9bc
00000300: ae04 99bc b6d1 89bc c4d2 0fbc 6eda 0fbd
00000310: 97a0 273d e07a 013b c736 223d aa4f 1dbd
00000320: ac23 8ebc 3fd5 99bc 19ca 9b3c eb76 353c
00000330: ab34 043d f760 1ebd e071 77bd ec2f 85bd
00000340: 9fe6 db3c 790e a6bc ea85 72bd 4a60 84bc
00000350: b032 fdbb b19a 51bd b4ee a8bd b30c 533d
00000360: 3129 e23c a6ef f7bc 8af8 fd3c 8025 c7bd
00000370: b7a6 df3d 8a48 e9ba 3121 d53c 9788 f3bb
00000380: 94c0 32bc 41b0 9cbc 2ef9 a4bc 7aa1 a9bb
00000390: 1229 46bc 1118 0c3d f460 233c 9c5c 533c
000003a0: 9e80 12bd b726 883c 32b5 f0bd 3e22 7d3d
000003b0: 6030 e63c 2822 97bd 43b1 a4bc bdd7 84bd
000003c0: 6e33 943b 3f99 a0bb e40d 90bd e509 ad3c
000003d0: 3215 0bbd 0d5a de3c 0258 82ba d29f 2e3d
000003e0: f460 2abd 5e78 ab3b c25e e43b 5302 c9bc
000003f0: e448 4e3d e8f1 06ba 581c 303d 928b c9bc

fc1.bias f4 [50]
0.0321568 -0.04879251 0.054598592 -0.063886 0.005476716 -0.029821489 -0.075034015 0.09204646
0.08616268 -0.04792815 0.02675475 0.034998488 0.018802663 0.010895265 0.096543096 0.19458462
-0.05563379 0.014685554 0.06757736 0.09873983 0.0057145692 0.056830425 0.03449403 -0.053876244
-0.009265242 0.03907328 0.021635747 0.0812959 -0.047149386 -0.036063544 0.10492488 0.0071335165
0.007962342 0.005933079 0.026179885 0.040209662 0.079366066 0.00075446354 0.15545149 0.019677876
0.005630008 0.08790494 -0.0682322 0.08271118 0.10605546 -0.03900608 0.11783373 -0.06743764
0.07816393 0.033807445
00000000: d9b6 033d a8da 47bd c6a2 5f3d aad6 82bd
00000010: 0676 b33b 324c f4bc 6fab 99bd db82 bc3d
00000020: 0f76 b03d 4f50 44bd c72c db3c 935a 0f3d
00000030: 0b08 9a3c 0e82 323c 63b8 c53d 3141 473e
00000040: 42e0 63bd ae9b 703c 0066 8a3d 1c38 ca3d
00000050: 4841 bb3b 05c7 683d 9d49 0d3d 56ad 5cbd
00000060: 3ecd 17bc 4e0b 203d 733d b13c 777e a63d
00000070: b71f 41bd 5eb7 13bd dbe2 d63d 46c0 e93b
00000080: 7c74 023c 466a c23b 3377 d63c e3b2 243d
00000090: ad8a a23d 31c7 453a ad2e 1f3e 7f33 a13c
000000a0: ee7b b83b 8107 b43d 53bd 8bbd 7b64 a93d
000000b0: 9b33 d93d d7c4 1fbd d052 f13d bf1c 8abd
000000c0: 6914 a03d ad79 0a3d

fc2.weight f4 [10, 50]
-0.16074865 0.19371426 0.11905373 -0.0054471963 0.24572526 -0.12205518 -0.08731275 -0.0842093
0.18642145 0.2437717 -0.29213434 -0.25658402 0.3075291 -0.108248204 0.3262795 0.28375494
-0.035786312 0.39903232 -0.06479582 0.3863647 0.35309795 -0.027356844 -0.10647596 0.10104264
0.30750647 -0.21366252 -0.04550341 -0.32765064 -0.024300382 -0.056155812 0.42944756 0.045025624
-0.05472905 0.05187874 -0.41422802 -0.06926829 0.35725918 -0.22988002 0.26953262 -0.041040972
-0.15762843 -0.10760621 0.19884266 0.28851852 0.5510383 0.17814384 0.282552 -0.09806915
-0.22898763 -0.1477874 -0.042165376 -0.11863142 -0.21098994 -0.22737934 0.38516662 -0.17448057
0.46919253 0.030994492 -0.17736302 0.21931192 0.53713304 -0.15384279 -0.06991367 0.17473884
-0.17065921 -0.2307631 0.01649534 0.36395055 -0.06765943 -0.4224372 -0.24758483 -0.04914339
0.31850058 0.04090976 -0.29779544 -0.12488349 -0.115837775 0.34517512 -0.22156835 0.67063856
0.48290288 -0.042204786 -0.13818097 -0.32708803 0.31567472 -0.18730423 0.054742552 -0.36872047
-0.4233533 0.029169329 -0.115157 0.011682313 -0.13112059 0.303987 -0.32828793 0.27643707
-0.26424682 0.3227805 -0.2691454 -0.06297577 -0.047848828 -0.24845275 -0.19814514 -0.13899192
-0.19814311 -0.015362814 0.29527503 0.36770532 -0.14452042 0.2792794 0.2768036 -0.33582577
0.32972538 -0.22125508 -0.15642513 0.29597744 0.11182775 -0.20371756 0.44449356 0.4028636
0.3663398 -0.31412587 -0.113407776 -0.080350295 0.32343966 -0.21881908 0.39718485 -0.32272595
0.2636183 -0.16026771 -0.23801559 0.035468675 -0.036018122 -0.25060374 -0.07515085 0.30718684
0.40298033 -0.048204247 0.26194352 -0.05612959 -0.27450153 0.23012881 0.11478215 -0.39029604
-0.10909754 -0.3301669 0.4373683 -0.09170346 -0.16720325 -0.21070042 0.05409197 0.19061106
-0.33092988 -0.15011588 0.3550106 0.49075845 0.26462528 -0.18547249 -0.26154217 -0.2450148
-0.13746959 0.28132707 -0.28350395 0.14815517 0.26563781 0.2867365 -0.1208171 0.338529
-0.0843384 -0.2248871 0.36569253 -0.37650263 0.26055452 0.025535831 0.35653007 -0.1623788
-0.32712483 0.2613239 0.34222516 -0.19435592 -0.11596379 -0.22970231 -0.13587916 -0.44254515
-0.0938732 0.36773887 0.28588554 0.25171566 0.08746297 -0.14035535 -0.11948743 -0.38323283
-0.114848174 0.35627523 -0.14704312 0.011390694 0.019486252 0.32092384 -0.3216649 -0.31408545
-0.1261878 -0.2973791 -0.39171743 0.27185225 0.33992198 -0.20977035 0.40360236 0.38083467
0.029150136 0.32701415 -0.28649774 -0.43183032 0.30215335 -0.22668813 -0.22951247 -0.16307646
0.19552626 -0.2301584 0.46427688 -0.06301248 0.34924632 -0.5249741 -0.25698274 -0.20685612
0.36699468 0.30372047 0.37184098 0.076940954 0.26104754 -0.013913812 -0.3149232 0.22768451
-0.2138693 -0.32067457 0.16534808 0.34911162 -0.26455912 0.27312133 -0.33707628 -0.12363487
-0.26977357 0.26566884 0.23552907 0.019305298 -0.06668014 0.17440064 -0.061080154 0.29109076
-0.24717915 -0.110064566 -0.2987762 0.33242726 0.3503723 0.18877873 -0.3590786 0.48641333
00000000: 4b9b 24be 085d 463e 71d2 f33d 657e b2bb
00000010: 679f 7b3e 11f8 f9bd 07d1 b2bd ed75 acbd
00000020: 44e5 3e3e 4a9f 793e a292 95be fb5e 83be
00000030: 7474 9d3e 3cb1 ddbd 1b0e a73e 5448 913e
00000040: ab94 12bd f74d cc3e acb3 84bd 98d1 c53e
00000050: 41c9 b43e 761b e0bc 1110 dabd 72ef ce3d
00000060: 7d71 9d3e 59ca 5abe c961 3abd d3c1 a7be
00000070: 9811 c7bc a303 66bd 8de0 db3e ca6c 383d
00000080: 912b 60bd cd7e 543d b215 d4be 89dc 8dbd
00000090: adea b63e ab65 6bbe 2e00 8a3e 941a 28bd
000000a0: 5969 21be a560 dcbd 699d 4b3e b3b8 933e
000000b0: d910 0d3f 576b 363e a8aa 903e 7ad8 c8bd
000000c0: bc7b 6abe 9555 17be 9ab5 2cbd 08f5 f2bd
000000d0: bf0d 58be 21d6 68be 8f34 c53e 09ab 32be
000000e0: 013a f03e 29e8 fd3c a79e 35be 4e93 603e
000000f0: 8d81 093f f788 1dbe e62e 8fbd bdee 323e
00000100: 4ac1 2ebe 294d 6cbe 3c21 873c ba57 ba3e
00000110: 0791 8abd b049 d8be e186 7dbe 944a 49bd
00000120: 8212 a33e fe90 273d a578 98be eac2 ffbd
00000130: 5b3c edbd cbba b03e d0e2 62be f8ae 2b3f
00000140: 0c3f f73e edde 2cbd 507f 0dbe 1578 a7be
00000150: 1ea0 a13e aecc 3fbe ba39 603d eec8 bcbe
00000160: c4c1 d8be 84f4 ee3c 6fd7 ebbd 2c67 3f3c
00000170: 7a44 06be 2fa4 9b3e 5b15 a8be 2989 8d3e
00000180: 5c4b 87be 7c43 a53e 6dcd 89be 71f9 80bd
00000190: 22fd 43bd 666a 7ebe 8fe6 4abe e653 0ebe
000001a0: 07e6 4abe 50b4 7bbc 4a2e 973e df43 bc3e
000001b0: 29fd 13be b6fd 8e3e 34b9 8d3e 5bf1 abbe
000001c0: c4d1 a83e b190 62be e92d 20be 5b8a 973e
000001d0: f305 e53d 569b 50be a994 e33e 2344 ce3e
000001e0: e490 bb3e 1bd5 a0be 5642 e8bd b28e a4bd
000001f0: e299 a53e 1c12 60be d05b cb3e 563c a5be
00000200: faf8 863e 381d 24be 5cba 73be 9a47 113d
00000210: bd87 13bd 224f 80be b0e8 99bd 9847 9d3e
00000220: 7053 ce3e d171 45bd 761d 863e 24e8 65bd
00000230: 778b 8cbe e3a6 6b3e e712 eb3d e2d4 c7be
00000240: 886e dfbd a30b a9be bdee df3e 06cf bbbd
00000250: 5437 2bbe dac1 57be 8b8f 5d3d 8c2f 433e
00000260: a46f a9be fab7 19be f3c3 b53e b144 fb3e
00000270: f77c 873e 80ec 3dbe dbe8 85be 29e5 7abe
00000280: d4c4 0cbe 1a0a 903e 6e27 91be fdb5 173e
00000290: ae01 883e 20cf 923e f56e f7bd ac53 ad3e
000002a0: 9cb9 acbd ce48 66be 0d3c bb3e f4c4 c0be
000002b0: 6767 853e 8530 d13c 1c8b b63e a146 26be
000002c0: e87c a7be 3fcc 853e 2338 af3e 3d05 47be
000002d0: 6c7e edbd 1537 6bbe e823 0bbe 4795 e2be
000002e0: 9840 c0bd 4548 bc3e 975f 923e e0e0 803e
000002f0: c91f b33d 50b9 0fbe d3b5 f4bd 1837 c4be
00000300: 8535 ebbd b569 b63e 7992 16be 09a0 3a3c
00000310: a2a1 9f3c 2150 a43e 43b1 a4be cfcf a0be
00000320: 6037 01be 1342 98be 308f c8be 3830 8b3e
00000330: 410a ae3e 0ace 56be f8a4 ce3e c3fc c23e
00000340: 44cc ee3c 666e a73e d5af 92be dd18 ddbe
00000350: d8b3 9a3e ef20 68be 5105 6bbe 84fd 26be
00000360: 0938 483e a5ae 6bbe b3b5 ed3e b00c 81bd
00000370: 6ad0 b23e b464 06bf 3e93 83be 17d2 53be
00000380: bae6 bb3e 4081 9b3e f161 be3e 3893 9d3d
00000390: 06a8 853e c2f6 63bc 9d3d a1be 2126 693e
000003a0: 8e00 5bbe 752f a4be 0251 293e c2be b23e
000003b0: 4b74 87be 8fd6 8b3e 4395 acbe 4734 fdbd
000003c0: c31f 8abe bf05 883e 882e 713e 2526 9e3c
000003d0: 998f 88bd 1596 323e 2f2f 7abd d909 953e
000003e0: 881c 7dbe 8869 e1bd 32f9 98be e833 aa3e
000003f0: 0064 b33e 364f 413e 26d9 b7be 2b0b f93e

fc2.bias f4 [10]
0.016620737 -0.30162525 0.3133111 0.32285807 -0.20023604 -0.50125533 0.709186 0.042641863
-0.39189878 -0.592802
00000000: 3628 883c a06e 9abe 506a a03e a74d a53e
00000010: ad0a 4dbe 4552 00bf 378d 353f 3ca9 2e3d
00000020: f5a6 c8be dfc1 17bf
